checkpoint_dueling_dqn.pth (torch, 31156 bytes, 7 tensors)

fc1.weight f4 [64, 37]
000000 ac 6b 8c 3e d2 ec 1e bd 1d 0e d9 be 4b a8 87 be
       0.27425897 -0.03880007 -0.4239358 -0.26495585
000010 be 38 ab bf d7 58 a4 bd 25 db 60 3d aa 28 1a 3e
       -1.3376691 -0.08024757 0.054896493 0.15054575
000020 54 53 07 3e f0 11 5f 3e 08 6e 55 be 36 8c 6a bd
       0.13215381 0.21784186 -0.20842755 -0.05726262
000030 ee 26 20 bd 37 13 94 bd f1 e4 85 3d 08 8d f3 bd
       -0.039099626 -0.072302274 0.06537808 -0.11892134
000040 20 fe f6 3d e0 a1 19 3e 89 e1 2a 3d 26 ea 4e bd
       0.12060189 0.15003157 0.041718993 -0.05051627
000050 5e 0a 1d bb 64 06 69 3d 4b 32 94 3d 74 00 fa 3d
       -0.0023962478 0.05689086 0.07236155 0.12207118
000060 6a 4d 74 3d 27 60 93 bc 0d b8 d0 3b 10 50 a8 bc
       0.05964414 -0.017990185 0.006369597 -0.02054599
000070 91 7e 97 3d 68 ab 64 3d 90 bc 0a 3c 0d ba c7 bb
       0.073971875 0.05582753 0.008467808 -0.006095177
000080 07 7c 9d bd 12 04 72 3d a2 c7 89 bd 8d 96 b0 bb
       -0.07689672 0.059085913 -0.0672753 -0.005389041
000090 d8 c0 12 bc 93 6e e5 3e fc cd 7c be b3 75 02 be
       -0.00895711 0.44810924 -0.24687952 -0.12740211
0000a0 a7 f9 20 be 18 22 92 bf 42 c2 1d be 32 71 13 be
       -0.15720235 -1.1416655 -0.15406135 -0.1439865
0000b0 79 04 04 be 75 57 48 bc 15 8e f2 3d 4c 27 62 3e
       -0.12892331 -0.012227883 0.11843506 0.22085303
0000c0 88 de 91 bd 5b 35 a1 bc 03 49 2b 3c 0c b6 be bd
       -0.071225226 -0.019678762 0.010454419 -0.093120664
0000d0 c9 19 ba bd 9d 02 22 3e 11 51 b7 3d e7 d7 5f 3d
       -0.090869494 0.1582131 0.08951009 0.05464926
0000e0 df 96 f9 3c 65 19 e3 bd 8d c0 cf bd 88 0d 80 bc
       0.030467449 -0.11088828 -0.10144148 -0.015631452
0000f0 85 17 97 bd c9 94 9e bc ec a0 11 be 63 b8 5c 3d
       -0.07377533 -0.019358056 -0.14221543 0.053886782
000100 4a 17 d3 3d eb 49 c7 3d 0f e0 e1 3d d6 26 35 3d
       0.103071764 0.097308956 0.11029064 0.04422649
000110 a9 35 2f 3e d3 9a 10 3e 37 c8 61 bd 4b 90 3b 3b
       0.17110313 0.14121561 -0.05512258 0.002861994
000120 7d ad db 3b 75 c1 c4 3c 3a ca 8b 3e 7c 0e c4 bd
       0.006704031 0.024018029 0.27302724 -0.09573075
000130 fd 4c 88 3d 7d 4c 74 bc 42 35 97 3e c7 61 da be
       0.06655309 -0.014910814 0.2953282 -0.42652723
000140 f3 47 e2 bc 04 ba 07 3e 87 34 bc 3d 76 3b 44 be
       -0.027622199 0.13254553 0.09189706 -0.19163308
000150 a1 7a 0c be 3c 91 0d 3e 9e 8c f2 bd 7e 13 04 be
       -0.13718654 0.13824934 -0.11843227 -0.1289806
000160 33 e1 86 bb 53 fc 77 be 3a 39 a7 3c 79 7d 1e 3d
       -0.0041162013 -0.24217348 0.02041303 0.03869388
000170 ca 50 97 3e e6 78 8a 3e cb 0b 9b be a2 2f 9a bc
       0.29553825 0.27045363 -0.30282435 -0.018821541
000180 ae 9e 8f 3d 9e cb 49 3b bf 48 96 be 8b 15 6b be
       0.070126876 0.0030791531 -0.29352376 -0.22957437
000190 2d 2b d5 3d 97 5c 2b 3e 8b 4d 13 3d e2 28 e8 3c
       0.10408626 0.16734539 0.035962623 0.028339807
0001a0 7d fd c7 be c2 7a ea 3d d2 bf 3a bd 32 c0 ec bd
       -0.39060584 0.114491954 -0.04559309 -0.11560096
0001b0 1d 69 03 be 04 e8 eb 3c 2c 8f e9 bc 07 92 e5 3d
       -0.12833066 0.028797157 -0.028510652 0.11209493
0001c0 5e 1a ba be 3d 11 89 3e 6a 6d 83 3c e3 3f e8 be
       -0.36348242 0.26770964 0.016043384 -0.45361242
0001d0 1e 6d ee bd f1 2d 26 3e ac 3e e2 3d fc e6 82 be
       -0.11641906 0.16228463 0.1104711 -0.25566852
0001e0 05 e6 26 be ea db 48 3e 3d b6 3d be 3f 7a 2b 3d
       -0.16298683 0.1961514 -0.1852655 0.04186463
0001f0 07 5b d9 be 22 bd 88 be df 52 82 be 55 4d 97 be
       -0.4245226 -0.26706797 -0.2545385 -0.29551187
000200 8e ba 39 3e 33 df 95 be d1 84 96 be d3 4a 74 3e
       0.18137571 -0.2927185 -0.29398206 0.23856668
000210 e9 8c 74 bd 46 c3 0c be 64 85 5e be 4a a9 df 3d
       -0.059704695 -0.13746366 -0.21730572 0.10920961
000220 97 d0 1f be 3a 8f 0e be f6 f5 70 3e 87 0c 92 bd
       -0.15606914 -0.13921824 0.23531327 -0.07131296
000230 4e e4 7b be 84 01 2c 3c ab 21 06 3e 06 d2 b6 3a
       -0.2459881 0.010498408 0.13098781 0.001394809
000240 2d 24 5b 3c 3d fc 95 be f6 c4 06 3e a2 48 af bc
       0.013375324 -0.29294005 0.13161072 -0.021396939
000250 7e ba ca bd f6 7c 42 bd d1 3f cc bd e5 cb 99 bd
       -0.09898852 -0.047482453 -0.099731095 -0.07509593
000260 85 68 1f 3b 9e c1 de 3e 89 09 fd be f3 49 1f bf
       0.0024323773 0.43507093 -0.49421337 -0.6222221
000270 24 e4 f1 be c1 6f 04 c0 9e 8d 27 3c 96 6c 93 bc
       -0.4724437 -2.069321 0.010226635 -0.017996114
000280 93 c7 d7 bb 86 d2 01 3d 34 a4 08 bd 9d d5 14 bc
       -0.0065850704 0.03169491 -0.03335972 -0.0090841325
000290 0e 12 6e bc 56 61 a8 bc 0b 74 41 3c ad 4b a4 3d
       -0.014530672 -0.020554226 0.011807452 0.080222465
0002a0 18 12 28 bd b9 47 25 3d 46 77 a6 3c 15 5f 4c 3d
       -0.04103288 0.040351603 0.020320546 0.049895365
0002b0 a5 2f e0 3d 5f b4 88 3d f2 6d 93 3d ed 65 c0 3d
       0.109465875 0.06675028 0.07198705 0.09394441
0002c0 dd f4 a7 3d 88 7c 01 3d f4 12 c3 3d 9b 30 79 3d
       0.08201001 0.031612903 0.095250994 0.06083737
0002d0 3f 14 c3 3d f4 e1 e3 3d 0a 03 2f 3d 55 5d 6d bc
       0.09525346 0.111270815 0.042727508 -0.014487584
0002e0 db 8c 8a 3b d6 55 1b 3c ef fb a4 bc de 43 89 3c
       0.004228217 0.009480914 -0.020139663 0.016755994
0002f0 e3 2f 0a bd 14 b1 95 3d c2 11 02 3e 43 38 35 3e
       -0.033737075 0.073091656 0.12702087 0.17697243
000300 d7 5d 55 3d 17 a7 ac bc db 37 6f be a1 3d 71 bd
       0.052091446 -0.021075768 -0.23361151 -0.058896665
000310 f6 80 82 bd 2a 2b 45 bd b6 f2 f3 3c dc 45 f0 3c
       -0.063722536 -0.048136868 0.02977882 0.029330187
000320 bd 43 5a bd 2b 39 c8 3d da 09 1d bd 42 88 9e bc
       -0.053287257 0.09776529 -0.038339473 -0.019352082
000330 4f 45 99 3d c1 fd 08 3e 16 56 26 3d c8 eb d8 3d
       0.07483923 0.1337805 0.04060944 0.10591847
000340 77 61 19 3c 45 68 07 3e 32 0d e6 bb 43 69 6b 3b
       0.009361616 0.1322337 -0.007020616 0.0035920895
000350 f0 06 1e 3d 94 18 0c 3e 7c 64 f3 3d b6 e9 84 3e
       0.038580835 0.13681251 0.118844 0.25959557
000360 01 12 cb be e1 77 f6 be 66 74 27 be 16 29 d5 bf
       -0.39662173 -0.48138335 -0.16352996 -1.6653163
000370 9c 89 61 3b 24 90 bc 3c 49 a8 b4 bb c0 95 03 be
       0.0034414297 0.02301795 -0.005513225 -0.12850094
000380 e8 bd cd 3d ed a6 25 be 41 a7 ae be ab a7 66 be
       0.10045987 -0.16176958 -0.3411198 -0.22524898
000390 53 f4 51 bd ef a3 5b 3c d4 2d a3 3d 67 39 9c be
       -0.051258396 0.013405784 0.079677254 -0.30512545
0003a0 00 de cc 3d 05 f3 5a bc 73 de d7 bd 1c 58 18 3e
       0.10003281 -0.013363604 -0.10540476 0.14877361
0003b0 b9 2d 17 3e 39 b4 a3 be 2e 0f 7f 3d 6d 20 1b 3e
       0.14763536 -0.31973436 0.062270336 0.15149088
0003c0 9c e0 df bd ea ba 6c be 16 d5 a6 bc b0 93 e2 3c
       -0.10931513 -0.23118177 -0.02036528 0.027658314
0003d0 c8 07 90 3d 1e 55 a7 be ac b4 93 3e bc 20 a2 be
       0.07032734 -0.32682127 0.2884878 -0.316656
0003e0 5d 78 39 3d f6 40 34 3d 1c 5b b8 be 3d b6 af be
       0.045280803 0.044007264 -0.3600701 -0.34318724
0003f0 dd 65 e2 3d 4b d1 f3 bd 66 69 99 3d ac b7 b3 be
       0.11054585 -0.11905154 0.07490806 -0.35101068

fc1.bias f4 [64]
000000 75 4d 0e 3e 67 f8 b8 39 b4 cb 26 be 37 de 6f bd
       0.13896735 0.0003528029 -0.16288644 -0.05856153
000010 66 db 74 3e 84 72 5f 3c 25 92 af bd df 02 3c 3c
       0.23911819 0.0136381425 -0.08572797 0.011475294
000020 75 ba 63 3b e8 18 2f be ce 27 0b 3e ad a4 c7 3d
       0.0034748588 -0.17099345 0.13589403 0.09748206
000030 af 6d 01 3e 97 f5 07 3e 8e 03 b9 bd c3 c2 36 bd
       0.12639497 0.13277279 -0.09033881 -0.044619333
000040 85 04 81 3c 8e 39 76 3c f6 f4 80 bc ee 5e 64 be
       0.015749225 0.015028371 -0.015741806 -0.22301838
000050 22 65 cc bd b5 75 09 bd 62 bf c3 bc fe af af bd
       -0.09980227 -0.03355952 -0.02389497 -0.0857849
000060 8b ab ce bd 55 36 08 3e 51 e2 81 bc 43 48 59 bd
       -0.10091313 0.13301976 -0.015854986 -0.05304743
000070 5a bc 19 3e de 91 0e 3e 1f 1b 42 bd 8f 26 23 be
       0.15013257 0.13922831 -0.047389146 -0.15932678
000080 52 14 d0 3d 75 22 da bd 30 ea 07 be 09 3d 1e 3d
       0.10160126 -0.106511034 -0.13272929 0.038632426
000090 fe 27 b3 bd 90 fd 2d 3c ae 68 13 3d 0b b1 d6 bd
       -0.08747862 0.010619536 0.035988502 -0.10482987
0000a0 f6 64 9a bd 2f c3 89 bb a0 4f c1 bd 56 c5 2f 3e
       -0.07538788 -0.004204176 -0.094390154 0.17165121
0000b0 61 43 70 bc 83 77 fb bd 97 b9 0e bd 09 e6 58 be
       -0.014664502 -0.122786544 -0.03484496 -0.21181501
0000c0 b9 84 a1 bd dc 32 ad 3d f5 8f 24 be 70 2c 15 3e
       -0.07886643 0.08456966 -0.1607054 0.14567733
0000d0 41 b6 62 3d fd 7c fa bc d9 87 39 be 3e 75 0c 3b
       0.055349592 -0.030577177 -0.18118228 0.0021432186
0000e0 98 3e 23 3e c6 c4 6e bd c5 10 e2 bd 9b 73 10 be
       0.15941846 -0.058293127 -0.11038355 -0.141066
0000f0 48 d2 cc bb 80 75 44 3d 5e fe 06 3c fb 62 6e 3c
       -0.0062506534 0.04796362 0.008239357 0.014549966

fc2.weight f4 [64, 64]
000000 2f 36 70 3d b0 4b 3e be e3 74 2f be 01 d8 82 3d
       0.058645424 -0.1858356 -0.17134432 0.06388856
000010 ff ef 98 3d 10 36 8b 3d 3f 8f 3b be ec a4 09 3e
       0.074676506 0.06797421 -0.18316363 0.13441819
000020 ad fd 18 3d 83 14 cb 3c 91 25 4b bd 2f 16 17 be
       0.0373513 0.024790054 -0.049596373 -0.14754556
000030 e7 73 27 3e 04 b6 f8 3d 15 08 5f bd 51 fe 94 3d
       0.16352807 0.12144092 -0.054451067 0.072750695
000040 58 6a 71 3d de c6 f1 bc 3e 8a 0e be de 12 a3 3d
       0.058939308 -0.029513773 -0.13919923 0.07962583
000050 b1 b3 ac 3d 27 65 c6 bd 94 66 84 3d 5c 72 0a bd
       0.08432711 -0.09687262 0.06464878 -0.033800468
000060 bc c7 06 be 90 e5 82 bd 67 28 4a 3e ee bc 9b 3e
       -0.1316213 -0.06391442 0.19741975 0.3041758
000070 ad 41 6b bd 79 c4 06 3e 4c 32 54 3e 2f 05 56 bd
       -0.05743568 0.13160886 0.20722312 -0.052251037
000080 73 5a c2 be 39 1b 18 3e a8 cd 66 be 49 8b 65 be
       -0.37959632 0.14854135 -0.22539389 -0.22416414
000090 54 97 aa bd 5f 28 e4 3c 2f d4 4a 3e fc db 29 be
       -0.08329645 0.027851282 0.19807504 -0.16587824
0000a0 de 49 9e bd d5 dd 60 be 38 1a 5b 3e cf 06 fd bb
       -0.07728933 -0.21959622 0.2139672 -0.007721759
0000b0 eb 47 27 3e 7b 4b 05 3e 56 1f 28 3d 54 04 a1 3c
       0.16336028 0.13017075 0.04104551 0.019655384
0000c0 ed a2 87 3d 6e 5b 1c be a4 91 e3 bd 78 60 3d 3d
       0.066228725 -0.15269253 -0.11111763 0.046234578
0000d0 52 0b 51 be 02 6d 4c 3e a6 ca e8 bd c6 76 4c ba
       -0.20414475 0.19963458 -0.11366777 -0.0007799681
0000e0 31 9e 6d 3d da 7b d9 bd 11 b7 ba 3c e5 c9 a2 bc
       0.05801219 -0.10619326 0.022792371 -0.019871661
0000f0 c4 6e d2 3c cc fd 9b 3d b7 f8 ec be 04 5b 92 bd
       0.025687583 0.07616767 -0.46283504 -0.07146266
000100 c7 30 41 3e 2a 43 24 3e 7c 3b 93 bd 44 c5 0a be
       0.18866263 0.16041246 -0.0718908 -0.13551813
000110 4d 9a 0a be a3 fe 57 3d bd 25 a0 be 7c bb e0 bc
       -0.13535424 0.052733075 -0.31278792 -0.02743315
000120 f1 69 d5 bd 54 70 e0 3d c1 81 b5 ba fe 22 79 bd
       -0.10420597 0.10958925 -0.0013847874 -0.060824387
000130 62 6c e9 bd 30 e4 4d bd ef 19 b8 be cf 33 86 bd
       -0.113976255 -0.050266445 -0.35957286 -0.065528505
000140 62 f6 0b be f7 62 3c 3d b3 0f 88 3d 53 3d 8a 3d
       -0.13668206 0.045992818 0.066436194 0.06749978
000150 43 ec 0a 3d d7 3f bd bd 74 0c ab 3d c5 da 2a bd
       0.033916723 -0.09240692 0.083519846 -0.04171254
000160 29 b5 44 be d9 97 a6 3c 8c a8 f9 bc 69 93 b2 be
       -0.19209732 0.020336078 -0.030475877 -0.3487809
000170 7e 90 b0 3c db 07 4c be 52 30 0d 3b 07 bc 32 be
       0.021553274 -0.19924872 0.0021543694 -0.17454539
000180 77 9e 21 3d af 2a f4 bc 6a 8c 15 3e bc 04 da be
       0.039457764 -0.02980551 0.14604345 -0.42581737
000190 50 7f 20 be 43 de 1b be 40 45 2e 3e 61 fa aa be
       -0.15673566 -0.15221505 0.17018604 -0.3339415
0001a0 57 85 22 3e 9e c2 f7 bd 7b 76 e3 bd 19 85 fe bd
       0.15871178 -0.12097667 -0.11106583 -0.1242773
0001b0 f8 12 7a be ba 39 8c be 3f b4 c9 bd ce 87 cc bd
       -0.24421299 -0.27387792 -0.09848832 -0.0998684
0001c0 ac 99 eb bd 74 31 f8 be 81 d3 70 bd 0c e4 74 bd
       -0.1150392 -0.4847523 -0.058795456 -0.059787795
0001d0 84 3b 32 be cb 5d d5 bc de ac 76 3d a8 ec 0b be
       -0.17405516 -0.0260457 0.060223453 -0.13664496
0001e0 81 ca 72 be a1 9d db bd ea 39 47 3e 87 fd 6f 3d
       -0.23710062 -0.10723425 0.19455686 0.058591392
0001f0 9b 79 3a be 19 75 a2 bd 87 1c 3c be b5 7c a6 bd
       -0.18210451 -0.07932491 -0.18370257 -0.08129255
000200 35 14 78 bd b8 27 25 be 80 d1 48 be d2 ea ff 3d
       -0.060566146 -0.16128433 -0.19611168 0.1249596
000210 09 6f 06 3e cf ae 8b 3d e2 f3 60 3d 35 29 2a be
       0.13128294 0.068204515 0.054920085 -0.16617282
000220 41 da d1 3c 2c 5d 02 be cd 32 bb 3c 7d c7 12 3d
       0.025616767 -0.12730855 0.022851372 0.035834778
000230 b9 2e ce 3d 31 aa d1 3d 35 f1 ab bd a2 59 ac 3d
       0.100675054 0.102375396 -0.08395616 0.084155336
000240 d2 30 1d 3d 02 9c e5 3d 38 14 20 3d 9c a5 77 be
       0.038376637 0.11211397 0.039081782 -0.24184269
000250 9b b0 10 be 06 82 ed 3c 2d 5a ee 3d 2f 31 b5 bd
       -0.1412987 0.028992664 0.116382934 -0.08847272
000260 c7 75 62 3d ea a6 b1 3d 49 58 3f 3e 64 0a 26 3b
       0.055288102 0.086744145 0.18686022 0.0025335783
000270 c6 10 52 3d ca dd 95 3c 6b 33 21 be aa e7 88 bd
       0.051285528 0.018294234 -0.1574227 -0.066848114
000280 91 c7 65 be 82 a9 a4 3c cc 57 a5 bd 8b 14 4a bd
       -0.2243941 0.020100359 -0.080733865 -0.049335998
000290 c5 05 a8 3d 89 cf dc 3d 78 3f d4 3d c2 67 db 3d
       0.082042255 0.10781772 0.10363668 0.107131496
0002a0 c5 f8 84 3d b6 b1 ba bc 8b 22 9a bd fd 6f 40 be
       0.064927615 -0.022789817 -0.0752612 -0.1879272
0002b0 43 fc 18 3d 61 00 9b 39 c6 09 84 bd 6d 33 9b bc
       0.03734995 0.00029564186 -0.06447177 -0.01894542
0002c0 d1 f3 c1 bc 6e 5e 25 be fc fb a0 bd 0b a5 0d 3e
       -0.023675831 -0.16149303 -0.07860562 0.1383249
0002d0 d4 4d 87 be 41 e5 a3 bc e8 ab 64 bd b8 fb 36 3d
       -0.26426566 -0.020006778 -0.055828005 0.04467365
0002e0 2b 40 8e bd 58 80 20 be 67 84 09 3b cb eb eb 3d
       -0.06945833 -0.1567396 0.002098346 0.11519583
0002f0 cd c8 99 ba 8e 78 00 3e aa 27 c5 bd d4 c5 bc 3d
       -0.0011732817 0.12545988 -0.09626706 0.0921742
000300 a6 71 d1 bd 7a 05 45 be 01 de e4 bd 1b 49 cd 3d
       -0.10226755 -0.1924037 -0.111751564 0.100237094
000310 18 b7 7a bc cc c4 6f be e5 25 3c 3d d5 cf 78 3d
       -0.015302442 -0.23414916 0.045934577 0.06074508
000320 fd 67 96 be b1 5b 0e be ba 52 c4 3d d9 5b 79 3e
       -0.29376212 -0.13902165 0.09586091 0.24351443
000330 b2 47 16 be 78 c3 55 3e 7c 59 32 be 6a d3 ce 3d
       -0.14675787 0.20875347 -0.17416948 0.10098918
000340 b8 e4 63 3c 99 f9 37 be 5f 72 91 3c 94 9f 58 bd
       0.013909511 -0.17966308 0.017754732 -0.05288656
000350 69 a3 b4 bd 06 60 15 3e 4c eb 40 bd f4 61 d8 bd
       -0.088202305 0.14587411 -0.047099397 -0.10565558
000360 64 6c 13 3c 82 ad d1 3d 65 a0 a3 3d 42 0d f8 bd
       0.00899801 0.10238172 0.07989577 -0.12111904
000370 f3 5b ad bd ee de cc bd 06 a8 5f be f8 0e d6 bc
       -0.084648035 -0.10003458 -0.2184144 -0.026130185
000380 68 6f 8f 3c 69 9b 42 be 7a ff b2 3d a5 0b 11 3d
       0.017509177 -0.19004597 0.087401345 0.035411496
000390 8f 51 45 bd fd aa 5e bd 96 7e ff bc d3 f1 b1 bc
       -0.048173483 -0.054362286 -0.03118829 -0.021721756
0003a0 70 f4 a7 bd aa 34 56 be 70 e8 36 3e 9a 53 ff bb
       -0.0820092 -0.20918527 0.17862105 -0.0077919485
0003b0 1c c5 37 bd 07 41 91 bd dc 2d eb bc b2 b4 08 be
       -0.044865713 -0.07092481 -0.02870839 -0.1335018
0003c0 53 92 18 3c 75 7e c1 bd 14 dd 9c bd e5 93 b8 3d
       0.00931223 -0.09447948 -0.07659355 0.09012584
0003d0 fc a2 5c bd c9 db bd 3c 2d 3a 27 3e c6 2e 83 3e
       -0.05386637 0.02317609 0.16330786 0.25621623
0003e0 2f 10 cf bd 18 1f 2c be de 14 35 be af 65 a8 3d
       -0.10110509 -0.16808736 -0.17683741 0.082225196
0003f0 b2 e0 5d be ea 09 90 bd a2 ca 0c bd dd 27 ab be
       -0.21667746 -0.07033141 -0.034372933 -0.3342885

fc2.bias f4 [64]
000000 6c 20 c6 bd 3f 72 25 be ff 66 e2 3d e1 65 b3 bc
       -0.09674153 -0.16156863 0.11054801 -0.021899166
000010 f1 e2 cc 3d a4 64 17 be 3d 54 c3 bd 8f 15 c6 bb
       0.10004223 -0.14784485 -0.095375516 -0.0060450505
000020 39 50 1b bb 73 15 41 3e 81 d2 65 bc f2 df cb 3d
       -0.002369894 0.18855838 -0.014027239 0.099548236
000030 9b 99 94 bd 39 a2 b7 bd 7b 8c 71 3c 0e 87 e1 3d
       -0.072558604 -0.089664884 0.014742966 0.11012088
000040 41 78 f7 3c 61 1e 09 bd a2 13 2c be c2 9e 21 3e
       0.030208709 -0.033476237 -0.16804364 0.15783218
000050 a6 8c b2 3e 12 d9 87 3d d9 7c 05 3d f8 12 07 be
       0.3487293 0.066332 0.032589767 -0.1319083
000060 73 e3 a4 bd 26 8d da bd f6 d1 38 3d 03 c5 0c bd
       -0.08051195 -0.10671453 0.04512211 -0.034367573
000070 1c 34 0d be a7 d3 88 bd 84 be 85 3d 72 75 c3 bd
       -0.1378941 -0.066809945 0.065304786 -0.09543885
000080 c0 97 87 3e 95 7c 1a 3d 50 fc d6 3c da f6 eb bd
       0.26482964 0.037716467 0.026243359 -0.115216926
000090 dd 85 b6 bc 9c 39 eb bd 6a 10 11 bc dc 17 84 bd
       -0.022280628 -0.114855975 -0.008854011 -0.06449863
0000a0 9a 0b 0d be 38 79 d0 3e 27 cd 28 bd 62 8c d2 bd
       -0.13773957 0.40717483 -0.041211274 -0.10280682
0000b0 6c 48 08 bd 62 0b fd bd 0a ac ce bc 11 4d 30 be
       -0.033272192 -0.12355687 -0.025228519 -0.17216899
0000c0 30 b4 03 3c d8 7a 25 be a7 5d 1e be 4b 62 82 3e
       0.0080385655 -0.16160142 -0.15465413 0.25465617
0000d0 d5 99 97 bc 52 3e 21 be 0c f3 0a bd 66 0d c6 bd
       -0.01850597 -0.1574643 -0.033923194 -0.09670524
0000e0 5f ea 29 be cf 8c 11 be 4b 5a 20 3e 02 aa 70 bc
       -0.16593312 -0.1421387 0.15659444 -0.0146889705
0000f0 68 a2 9a 3d 2c b8 9e 3c 14 bf 45 3e 46 f2 1c bd
       0.07550508 0.01937493 0.19311172 -0.038316987

fc_value.weight f4 [1, 64]
000000 ba 96 6e be 99 9d 2e 3e cb 2f fe 3d b2 11 27 be
       -0.23299685 0.17052306 0.124114595 -0.16315344
000010 65 ad 9d 3e 73 6c 52 be e4 53 b3 3e 15 cb 06 3f
       0.30796352 -0.20549183 0.3502494 0.5265363
000020 22 c4 19 3e 5f e9 e9 3d 2e 38 70 be ca 0d 00 3d
       0.15016225 0.11421465 -0.23458931 0.03126315
000030 cf 9a 78 bd ba 85 67 be 39 c4 b2 3e d4 83 14 3d
       -0.060694512 -0.22609606 0.3491533 0.036258534
000040 0f 0f ef 3d 4b 4c 65 3e fe 4a 85 bd 74 1f 54 3e
       0.11672794 0.22392385 -0.06508444 0.20715123
000050 8c 71 3b 3e ca 5f a8 be 30 f0 71 3e 02 8e ed be
       0.18305033 -0.3288558 0.2362678 -0.46397406
000060 dc 6a 97 3d cf 64 7d bd b3 27 b9 be 21 a1 0c bf
       0.07393429 -0.061863717 -0.361631 -0.54933363
000070 75 db b6 bd 90 7d 38 be 55 ad 14 3e 08 33 50 3e
       -0.08928577 -0.18016648 0.14519246 0.20331967
000080 81 da 5b 3e 83 49 8e 3d 21 0a 13 3f bd 98 cc bd
       0.21470071 0.06947615 0.5743733 -0.0999007
000090 dd 0f 90 3e ee 99 0a bf 1e b0 19 3f 6a 6f 59 3e
       0.28137103 -0.5414113 0.6003436 0.21233907
0000a0 21 7a de 3e fd 7b 67 3e a5 b9 84 be 76 98 be bd
       0.43452552 0.22605892 -0.25922886 -0.09306423
0000b0 c9 46 97 bd 79 02 a8 bd 0b 1a 45 3e f4 ad c0 3e
       -0.07386548 -0.082035966 0.19248216 0.37632716
0000c0 e6 7c e7 be 4f 3d a6 bc 2f 72 ab 3e 63 1b 40 3e
       -0.45212477 -0.020292906 0.33485553 0.18760447
0000d0 26 dc df 3e 0f 3b 94 be 1f 7f 5e 3e 07 53 8f be
       0.43722647 -0.28951308 0.2172818 -0.27993032
0000e0 34 ca b9 be 65 a6 67 bd a7 c8 82 3e 6b 39 a7 3e
       -0.3628708 -0.05655517 0.2554371 0.32660994
0000f0 a0 e7 91 bd 7d 6e c8 3e c7 b4 2b 3e 03 13 f2 3e
       -0.07124257 0.39146796 0.1676818 0.4728013

fc_advantage.weight f4 [4, 64]
000000 f6 c7 22 3e 39 e7 65 3e d7 0a 9d bd de 17 1e 3e
       0.15896592 0.22451486 -0.07668083 0.15438792
000010 db 83 1a 3e d6 7a 35 3c 94 fb 28 bf ca 2e 33 be
       0.15089361 0.01107665 -0.6600888 -0.17498317
000020 7b 27 8a 39 f9 a1 73 3d 3f 32 08 bb 4f 21 a8 be
       0.00026350826 0.05948064 -0.0020781902 -0.32837912
000030 1d 44 28 3e 30 ba e4 bc 2f 52 46 3e 67 d4 45 be
       0.16432233 -0.027920812 0.19367288 -0.19319306
000040 9b 4b 43 3e fe c6 e9 bd 9a 26 04 3d c6 b2 c7 3d
       0.1907181 -0.11414908 0.032263376 0.09750895
000050 c9 76 03 3e f7 a9 6c 3e 33 02 05 3e a0 f3 f3 3e
       0.12838282 0.23111711 0.1298912 0.4764681
000060 aa 8a db 3d f1 d1 92 3d 31 6f 59 be 8c eb 25 3f
       0.107198074 0.071689494 -0.21233822 0.6481254
000070 41 f1 b2 3d 0e 49 cf 3c ce a4 3f bd f4 f2 70 bd
       0.08737422 0.02530339 -0.04678803 -0.05882545
000080 3a d7 80 bd 1e 1d d7 bd 30 76 c3 3b 6e a7 bc 3d
       -0.06291051 -0.105036005 0.005965017 0.09211622
000090 e6 74 b8 bd 5b 04 14 bc 75 31 5b bc b9 bb 10 3e
       -0.090066716 -0.009034242 -0.013378491 0.1413411
0000a0 2c 6a ed 3d 72 67 6b bd b0 38 8d 3e eb c5 4c be
       0.11592516 -0.0574717 0.27582312 -0.19997375
0000b0 d6 69 55 ba c5 c6 aa 3d db 0e 2d bd b9 ac c6 be
       -0.0008141076 0.083386935 -0.042250495 -0.38803652
0000c0 40 1e cc 3e 12 63 98 be 69 6c 75 be 1b 41 78 3d
       0.3986683 -0.29763085 -0.23967136 0.060608964
0000d0 b6 b0 a0 be 77 f8 a4 be 76 16 4d bd c9 c0 82 3e
       -0.3138482 -0.32220814 -0.05007025 0.25537708
0000e0 bf c8 6f be a2 87 e6 3c cf e7 6d bd 92 19 7a bd
       -0.23416422 0.028140847 -0.058082398 -0.061059542
0000f0 9d e9 83 be cf 83 b2 bd 7c 83 19 3e f2 02 c9 bd
       -0.2576417 -0.08716547 0.14991564 -0.09815015
000100 c6 ab c2 3d b9 fa 88 3e 5c af 8c bc ad 5d 8c 3e
       0.095054194 0.26753786 -0.017173462 0.2741522
000110 b3 19 02 3e 23 cc be 3c 88 fc 42 3e db ba 11 3e
       0.12705116 0.0232907 0.19041646 0.14231436
000120 9e b1 38 3d f3 0f b6 3c d1 96 1b 3d 32 1e 8c 3e
       0.045091264 0.022224402 0.037985627 0.27366787
000130 bc 43 7d 3d d4 5c 14 3d 59 8d 36 3e f9 79 c8 3c
       0.061832175 0.03622134 0.17827357 0.024472224
000140 7d 8b d4 be c9 a8 0f be 09 65 55 3d cf 28 95 bc
       -0.4151267 -0.1402923 0.052098308 -0.018207936
000150 f0 d2 10 3e a0 50 40 be 96 f6 fd 3d 11 7c ac 3e
       0.14142966 -0.18780756 0.12400548 0.33688405
000160 3b 27 6f be 5f 33 9e bc 86 a3 62 3d a4 a1 01 3e
       -0.23354809 -0.019311605 0.05533173 0.12659317
000170 77 04 27 3e 21 fe b9 bd 63 8a d2 3d 80 5f e7 bc
       0.16310297 -0.09081674 0.102803014 -0.02824378
000180 66 9f c1 bd 32 f6 3a 3e c6 93 19 3e 8a 4e 46 3e
       -0.09454231 0.18257979 0.14997777 0.19365898
000190 19 6e ef 3c 5d a7 e5 3d d3 e0 03 be 30 91 ce bd
       0.029227303 0.11213563 -0.12878732 -0.10086286
0001a0 0c ef 00 be 99 ed 6b bb ce 13 4d 3c fe f4 3b bd
       -0.12591189 -0.0035999774 0.012516929 -0.04588794
0001b0 7c 65 cd 3e f3 c1 3f 3e b9 5e 11 3d ef 03 dd 3e
       0.4011649 0.1872633 0.035490725 0.43167064
0001c0 c3 30 05 3e 5b 78 dc 3c cf f2 f7 bd 98 90 b3 bc
       0.13006882 0.026912859 -0.12106859 -0.021919534
0001d0 32 db 7a 3e 9a a6 8f 3e 88 c5 5e 3e 42 d2 e8 3d
       0.24497679 0.28056794 0.2175504 0.113682285
0001e0 01 05 9b 3e 21 68 8f 3e ea 98 80 bd 46 1d b9 bd
       0.30277255 0.28009132 -0.06279166 -0.090387866
0001f0 87 6c ce bb eb 51 2a be 12 d4 99 3d 00 e4 a6 3d
       -0.0062995586 -0.16632812 0.07511152 0.08148956
000200 17 22 a2 3d e4 f2 a4 bd 23 0f 25 3d 2d 88 30 be
       0.07916658 -0.0805414 0.04029764 -0.17239447
000210 44 57 5f be ae 44 43 3e 04 e8 c2 bd 58 08 da 3e
       -0.21810633 0.19069168 -0.0951691 0.4258449
000220 4b d5 a0 3d 8d 83 5e 3c af b9 30 3a 94 89 b0 bc
       0.078531824 0.013581169 0.0006741536 -0.021549977
000230 26 b8 48 be 74 87 03 3d a6 14 2a be 72 8f 23 3e
       -0.19601497 0.0321116 -0.16609439 0.15972689
000240 c1 d4 44 3e b9 3c 83 bd c7 21 0c be e3 a0 94 bc
       0.19221784 -0.06408066 -0.1368476 -0.018143123
000250 0a e6 b8 3d 15 61 b5 bd a3 39 51 3d 04 ce b5 be
       0.090282515 -0.088564076 0.051080357 -0.3550874
000260 1d 56 5d be 82 a5 4d bd b4 96 02 3e 55 2d c3 bd
       -0.21614881 -0.05020667 0.12752801 -0.09530131
000270 a9 a5 e6 bd db 05 ed bc 5c cb 49 3e 65 9d 02 be
       -0.11262066 -0.028933456 0.19706482 -0.12755354
000280 6e 6e 84 bc 9c 7d 75 bc 5c 7c f9 be 3f fc 48 be
       -0.016165938 -0.014983561 -0.4872769 -0.19627474
000290 f9 0e b1 3d cc 88 33 3c 6f 2a 4a 3e 3d 9b f2 bb
       0.08645434 0.010957908 0.1974275 -0.0074037598
0002a0 f3 4a a5 3d d7 59 1f 3d 0c ba 95 bd 1c 64 2d 3e
       0.08070936 0.038904037 -0.07310876 0.1693272
0002b0 5c 8c e4 be fa bf de bd c5 32 28 bc 59 16 d1 be
       -0.44638336 -0.108764604 -0.010266011 -0.40837362
0002c0 1e 35 17 3c 63 cb 38 be 37 81 6b 3e c5 12 25 bc
       0.009228973 -0.18046336 0.2299851 -0.010075276
0002d0 f5 94 8c be da bb 92 3e f5 6c a2 3d ab 63 e9 be
       -0.27457395 0.28658944 0.07930938 -0.45583853
0002e0 01 96 a1 be ad c2 b1 be 41 db 1c bd 16 cd 63 3b
       -0.31559756 -0.34718838 -0.038295034 0.0034759692
0002f0 dc d3 00 3d e7 9e 2f bc 42 ed ea bd 0c 27 a2 3e
       0.031452045 -0.010719038 -0.114710346 0.31670415
000300 7d f1 05 3d 80 bf d2 be 85 38 f0 bd 1a 75 4c be
       0.032701004 -0.41161728 -0.1172953 -0.19966546
000310 ed 92 da bd f2 51 59 be 92 0b 6e bb b3 49 15 bf
       -0.10672555 -0.21222666 -0.0036322814 -0.5831558
000320 0b b6 25 3d be 44 eb 3a da 6a 5b 3d 34 b8 66 3e
       0.040456813 0.0017949564 0.0535687 0.22531205
000330 94 55 02 3d 15 4e 1c be 32 5b dd bd eb 29 33 bd
       0.031819895 -0.15264161 -0.1080841 -0.043741148
000340 eb ce e8 3d cd 5b 3b 3e 08 91 ec 3d 5d a0 06 be
       0.113675915 0.18296738 0.115511 -0.13147111
000350 35 b9 7f 3d 23 07 4d 3e d8 ee 00 bd 30 4d 3c 3e
       0.062432487 0.20022254 -0.03147778 0.1838882
000360 a1 72 58 3e 5a 6a 89 3d 26 e6 f5 3d bd 39 16 3f
       0.21137477 0.06709738 0.12006788 0.5868185
000370 72 95 5f 3d e3 ab 2a 3d 78 07 70 be c4 f7 3f 3e
       0.05458588 0.04166783 -0.23440349 0.18746859
000380 62 23 95 bd 75 7e 45 bd 2e 70 b9 3e 6f 19 6a bb
       -0.07282139 -0.048216302 0.362184 -0.0035720726
000390 b6 10 52 be 00 6b c2 3e f3 ac a9 bd 88 4e 68 3e
       -0.20514187 0.3797226 -0.082849406 0.22686207
0003a0 a6 1b e1 3b c4 13 15 bb 54 7b 83 bd 45 e8 6e 3e
       0.006869751 -0.0022747377 -0.06420007 0.23330791
0003b0 b5 9c 23 be 00 6b 23 3e c2 f4 9b 3d c0 97 8f be
       -0.15977748 0.15958786 0.07615043 -0.28045464
0003c0 77 31 0d be 03 b9 a9 3e 72 f0 74 3e 71 77 04 bb
       -0.137884 0.33148965 0.23919848 -0.0020212794
0003d0 61 5f bd ba 48 e7 0e 3c 1f de 67 bd c1 19 34 3e
       -0.0014447981 0.008722134 -0.056608316 0.1758795
0003e0 67 00 fd 3d ba 39 72 3e 3c d7 93 bd 16 f6 00 be
       0.12353592 0.23654833 -0.07218787 -0.12593874
0003f0 5f cc b4 3c c2 17 33 3e 8a 86 d0 bd 18 cf 43 bf
       0.022070108 0.17489532 -0.10181911 -0.76487875

fc_advantage.bias f4 [4]
000000 29 c0 d9 ba ef 20 f2 bd 62 a1 e3 bd 82 c8 ab 3c
       -0.0016613054 -0.11822688 -0.11114766 0.020969633
