checkpoint_double_dqn.pth (torch, 30054 bytes, 6 tensors)

fc1.weight f4 [64, 37]
00000000: 8f1f fb3d 4f4f 3a3b 0921 fabd 9918 50be
00000010: e840 edbd b650 333d b8d8 ff3c 543a de3d
00000020: f90d 2dbd d619 a83d fb91 aa3d a03b 3abc
00000030: be00 82be c80c cdbe 1937 66bf e629 ac3d
00000040: 67e1 82bb bc95 283e b52e 2bbe 76b2 4cbe
00000050: bd03 8f3d d0f6 513e ee50 403d 000c 0d3d
00000060: 0caa 433d 0131 02bb 309a cc3d 26ec 693d
00000070: e27c 4cbe 0507 2cbe 262e 91bd 6a19 983a
00000080: 415c b73d 9862 1dbb f633 e53d 4337 e1bc
00000090: 5f3a 76bc 754c 273d e8ac 253e db42 d53d
000000a0: 52e5 e8bd b476 82bd 9853 c83d 1ae2 e5bd
000000b0: 5e6d 85be cd3c 82be 9ec3 50be f1e9 11bc
000000c0: 8b80 c4bb 7913 99bb 8821 b73d 8824 a93d
000000d0: c36e 143e d8e4 2ebe 3d99 083d 336e 2abe
000000e0: a805 e4bd 62a4 b8bd 820f 5ebe 8125 61be
000000f0: 4587 3e3e db03 073e 1891 e13c 17cb aabd
00000100: 7892 a0bd b6a6 0ebd 75b7 d4bd a03f 0bbe
00000110: 8092 963d 8842 8d3e e464 fcbc cfe7 923d
00000120: a25c 0d3e 327c b43c 3a6a 773e c3ee 273d
00000130: ccb4 d43d e09c 9bbe 88ee 15bf a8ba e23c
00000140: dbde 72be d5bb 763e ddff 53bb 8587 d7bd
00000150: 72de e03d ee39 17bd ab8e 7fbd 3c97 43be
00000160: 7239 9dbd 1041 68be 91aa 9b3d 4580 4e3e
00000170: 853b cc3d 20a7 903e 38a1 bdbe 14c5 df3c
00000180: c453 e83d a8ff e139 111a 85be 1cbf 4e3d
00000190: c674 0b3d e6bb ca3d fa1b 26be 6133 a7bc
000001a0: ba32 42be 1bbb 83bd 93bb edbb 11e8 1fbe
000001b0: 04a2 24ba 865c c1bc 8478 28bc 485d 343c
000001c0: 446f 0e3e edde 1a3e 7701 4b3d 5ad7 6cbb
000001d0: 0b71 b7be 218c 843e b2a4 243e 32f2 1f3e
000001e0: 79b1 703d fb66 e6bb 8d88 8ebd 06d0 f63d
000001f0: 154c ebbd f7cf 80be 4e69 ecbd 3410 103d
00000200: 8e01 f93c 10f2 23bd 4c58 bfbd f9c6 843d
00000210: dfc6 a4bc 88dd e53c 8aa6 c63c 397b e5bd
00000220: 45df 48be accf 583e 1164 243b 5cc7 9d3e
00000230: 7575 993e 11b9 d13c 4f32 a03d 4519 ef3d
00000240: 540d 223c 6b47 01be 6aed c33b d014 653b
00000250: 6d47 73bc 2b49 12be 903a 09be 1d9e 56bc
00000260: 8c61 bd3d f7b0 803e f02c 643d 4027 8cbd
00000270: 309b a4be eb0d 29bf bd66 173e 2bd7 f9bd
00000280: fcba a1bc 67e8 2a3d 7bdf 31be 75ae b0bd
00000290: fb0f 283d c03d 3a3c 8ef9 b83d 3dd3 4a3e
000002a0: 5f26 d9bd 0fc9 92bc 8be5 0a3e 0d0d 633e
000002b0: 31c2 f63e 27d2 7b3d 717b fcbd 2f2c f63d
000002c0: 913f 853e 702a 8a3e 50a0 f23d a3e5 b0bd
000002d0: 2618 a83d fd04 303e e806 793e d633 b93b
000002e0: a431 ecbb d864 9abb 80c9 2fbd 7729 8abd
000002f0: 83c1 953d 49ff a33c 4c4e 493e 8c52 ef3c
00000300: d77f adbe 5393 093e fd73 b0bf 7141 683c
00000310: 4fba 0a3d 2f6a 2dbe a431 c6bd f3f6 df3c
00000320: 68be 32bc fd9a 023e cda0 1ebd 705e 14be
00000330: 43ab 313d c95f 8d3d 2d45 f83b 5c27 043e
00000340: 3d5b 8c3c 164a 213d daaf 0bbd 57c5 12bd
00000350: 961e 3bbc 17a3 313e f386 223e e1ae a0bd
00000360: ac03 cdbc e9db 053d bcf8 063e c208 0bbe
00000370: a7d6 293d 87ae 983c 841d 443e ebef 19be
00000380: 0ad8 cebd 4490 a3bd 493a b2be 2dbb 78bc
00000390: 845e 7fbe 095a 42bc bc8b 113e c71c 933d
000003a0: a709 f53d 0ec3 283e 7a5e ee3c 2a65 22be
000003b0: da01 923d dbbc e4bc e4c5 c33c f916 f1bd
000003c0: a3c8 12ba e01e 563e b390 58be b20f 603e
000003d0: 8dd6 3ab8 3ae4 ccbd 57e6 b93e 8461 65bc
000003e0: 6943 5b3d 7b46 94bd eb9e c6bd b0a8 abbe
000003f0: 304b 983e cd50 53be c0fb 61be 019e 98bd
0.12261879 0.002842862 -0.12213332 -0.20321883 -0.115846455 0.043778144 0.03123127 0.10850969
-0.042249653 0.08208053 0.08328625 -0.011366755 -0.2539119 -0.40048814 -0.8992782 0.08406429
-0.003994155 0.16463369 -0.16717036 -0.19989952 0.06983135 0.20504308 0.04695218 0.034435272
0.04776959 -0.0019865634 0.099903464 0.057109974 -0.19969514 -0.16799553 -0.0708888 0.0011604254
0.08953143 -0.0024015065 0.111915514 -0.027492171 -0.015028565 0.0408444 0.1617924 0.10413142
-0.113718644 -0.06370297 0.09781569 -0.11224766 -0.26060003 -0.25437012 -0.20387122 -0.008905874
-0.005996769 -0.004671511 0.089419425 0.08258921 0.14495377 -0.17079484 0.033349264 -0.166436
-0.11133891 -0.090157285 -0.21685603 -0.21986963 0.18606289 0.13185064 0.027535006 -0.083395176
-0.07840437 -0.034826957 -0.10386554 -0.1359849 0.073521614 0.27589822 -0.030809827 0.0717312
0.13804868 0.022031877 0.24161616 0.040999185 0.10386047 -0.30393124 -0.58567095 0.027676895
-0.23717825 0.2409509 -0.0032348551 -0.10523895 0.10979928 -0.03692048 -0.06239192 -0.1910066
-0.076769724 -0.2268107 0.07600892 0.20166118 0.0997229 0.28252506 -0.37037063 0.027315654
0.11344102 0.00043105823 -0.2599645 0.050475225 0.03404691 0.0989912 -0.1622161 -0.020410242
-0.18964663 -0.06432172 -0.0072550266 -0.1561587 -0.0006280246 -0.023603689 -0.010282639 0.011008568
0.13909632 0.15124102 0.049561944 -0.0036139102 -0.35828432 0.2588816 0.16078451 0.15619734
0.058763 -0.007031319 -0.06959639 0.12051396 -0.11489121 -0.25158665 -0.11543523 0.035171703
0.03039625 -0.04002577 -0.09343013 0.064832635 -0.02011436 0.028059736 0.024249334 -0.112051435
-0.1961642 0.2117297 0.0025084058 0.30816162 0.29972425 0.025600942 0.078220956 0.11674742
0.009890873 -0.126249 0.0059792297 0.0034955032 -0.014848572 -0.14285724 -0.13401246 -0.013099221
0.09247121 0.25135013 0.05570692 -0.06843424 -0.3214965 -0.6603686 0.14785285 -0.12199243
-0.019742481 0.041725542 -0.17370407 -0.08627025 0.041030865 0.011367261 0.09031974 0.19807144
-0.10603022 -0.017918138 0.13564126 0.22172947 0.4819503 0.061479714 -0.12328232 0.12020146
0.2602506 0.26985502 0.118469834 -0.0863755 0.08207731 0.17189403 0.24319041 0.0056519313
-0.007208066 -0.0047117285 -0.042916775 -0.0674619 0.073123 0.02001919 0.19658774 0.029214166
-0.33886597 0.13435106 -1.3785397 0.014175759 0.033869084 -0.16935037 -0.09677437 0.027339434
-0.010909654 0.12754436 -0.03872757 -0.1448915 0.04337622 0.06903035 0.007576606 0.1290564
0.01713335 0.039377294 -0.034103252 -0.03583273 -0.0114208665 0.1734737 0.15871792 -0.078458555
-0.025026165 0.032680426 0.13180822 -0.1357756 0.041464474 0.018637909 0.19151884 -0.15032928
-0.100998 -0.07986501 -0.34810093 -0.015181345 -0.24938399 -0.011862286 0.1421346 0.07183223
0.11964732 0.16480657 0.029097784 -0.15858904 0.071292594 -0.027922085 0.023898073 -0.1177196
-0.0005599355 0.20910215 -0.21148948 0.21880987 -4.454567e-05 -0.10004468 0.36308548 -0.0140003
0.053531084 -0.072400056 -0.0969828 -0.33527136 0.29744864 -0.20636292 -0.22068691 -0.07452012

fc1.bias f4 [64]
00000000: 0e9f 263e 0e0f acbd df9a e5bd ecf3 35bd
00000010: 12cf 563e 75f0 f6bc bc02 27bc 9d44 e8bb
00000020: ad15 13bb fda3 46be b137 1a3e 221b 243e
00000030: 80b3 233e 211e f43d 4ced b7bd 7521 9dbd
00000040: bd77 dcbc bf7f 6bbd 23d8 c83b 4209 28be
00000050: 9554 1abd b8c2 b03d 12b4 84bc 8959 1cbd
00000060: 1bbe 92bd b189 573e 1da3 61bd fceb dcba
00000070: b9ab 323e 77b4 ed3d 33e9 72bc 48a8 8bbd
00000080: 2cfe 353e 23dd 6f3c b6e9 45be 44d9 0b3e
00000090: d0ad 97bc 59e5 973d b79b 18bd 0857 4dbd
000000a0: 3259 d5bd dde2 33bb 59b0 aebd ddce 813e
000000b0: 967c 58bd d351 e3bd 4374 ab3d cdf5 d6bd
000000c0: 3580 a1bd 83a7 543d 2044 19be 5661 c3bc
000000d0: 9246 69bc 6cd9 01be b829 4abe 5302 9ebc
000000e0: 40d9 913d 2cef 57bd 5e20 a3bd f382 fbbd
000000f0: 712f 403c b984 643d acbb c33d d5f7 d13d
0.16271612 -0.08401309 -0.1121118 -0.044422075 0.20977429 -0.030143956 -0.010193523 -0.0070882575
-0.002244334 -0.19398494 0.15060307 0.16025975 0.15986443 0.11919809 -0.08980808 -0.07672397
-0.026912564 -0.057494875 0.006129281 -0.16409782 -0.03767832 0.0863089 -0.016199145 -0.038171325
-0.07165166 0.21048619 -0.055087198 -0.0016854997 0.1744832 0.116066866 -0.014826107 -0.068192065
0.1777274 0.014640125 -0.19327435 0.13657099 -0.018515497 0.074167915 -0.037257876 -0.050131828
-0.10417403 -0.0027448453 -0.085297294 0.25353137 -0.05285319 -0.11099591 0.083717845 -0.104961015
-0.07885782 0.051917564 -0.14967394 -0.023850124 -0.014238017 -0.12680596 -0.19742477 -0.019288218
0.07121515 -0.052718326 -0.07965158 -0.12280836 0.011730061 0.055790637 0.0955728 0.10252348

fc2.weight f4 [64, 64]
00000000: 3ef8 3a3d 1090 58bd 4604 de3d 4c45 60bd
00000010: d83c bc3d 15ec 24be d157 b0ba 6c7a dcbc
00000020: 2cfd af3d 09c3 34be d534 8fbd aef0 0bbc
00000030: 943a b3bd 1936 c43d b8d0 97be defc ecbd
00000040: fc77 23be 925d cabd 9b6b 0c3d 05ff 8cbe
00000050: 80d0 c03c ea1a a33d ec30 f63d 211c 00bf
00000060: a32e 27bd 2857 f73c af7a 603e 87da f7bd
00000070: 45d6 623d 558c 9bbe 6822 a8be d75b 59bb
00000080: 9add 223e 8c24 03bd dcdc 51bb a2cb 3e3e
00000090: c576 1f3c 360b a93b 8a9c 86be 1770 5abe
000000a0: 1637 95be fa86 563e 914b 5c3e 0e0b edbb
000000b0: ee77 af3c 5d91 0c3e dcb0 99be 587a debd
000000c0: 3c09 f7be 81de 5a3d 0f75 7cbd 90e8 a0bd
000000d0: b4fd 4bbe d627 8fbe b6e0 a63d 4ff4 1fbc
000000e0: e299 ac3d 7cd4 d8bd 1a5a 25be bf84 683e
000000f0: 7201 91bd 48d8 823e cc16 c2bb 3526 35be
00000100: 5204 74bd b263 f73d b1df 16be 3352 0fbd
00000110: 3f3a 613e 1d76 243e 62f1 16bd ff15 ae3c
00000120: 2771 803d bcfd 363d 2eb6 9fbd 6846 883e
00000130: b5cf 32be 29fe b43e 6b44 8bbc 986d 06be
00000140: ae84 39bc 0789 8a3d 6e50 29be 9814 173e
00000150: 1c8d 2e3d 6d28 37be d462 dbbe 5fd9 1abe
00000160: d277 07be 9dc9 83bd 2e2e 41bd c342 51bd
00000170: e7f8 1a3e a49c 45be 2679 033e 3cef f63d
00000180: 25cc e3bd 9f49 7abe a623 073e d631 92be
00000190: d3c0 efbd 062a f939 fd5f ffbd 7b0c 31bd
000001a0: 0172 23be 7943 b13d 2e72 4f3e 8b94 c3bd
000001b0: 1d9e debd a791 c3bc aada 30be a191 5bbd
000001c0: 31f8 5ebd 67bc 0abd 2a50 10be 214c 333d
000001d0: 8191 873c 4df9 b4bd 88e8 66bd ce65 18bc
000001e0: 60fa 08bd 481b 89bd 91a4 ba3e ba52 17bc
000001f0: 5922 70be 75f6 f23c 2744 c9bd c721 66bd
00000200: 7728 f6bd 6002 f6bd 29ed 013c 6267 e4bd
00000210: 7b85 a5b9 5b69 a4bd b02e 2b3e 395e d13d
00000220: 21bd 05bd 33e3 01bd 69b9 ab3d 2986 74bc
00000230: ee71 4dbd 369e c23d a976 ddbc 4382 24bc
00000240: 509f 1dbd 245a 9d3c 4dbc e33e 11d1 83bc
00000250: 8994 e4be 3dcb 4c3e d514 1ebe 2bbc 323d
00000260: bdc7 16be edb7 cb3d f34e a13e 5a0c bcbe
00000270: a0c7 4ebe 039e 253d 45e1 26be dd0a 22be
00000280: a108 843d 41a6 3a3e b0ca 36be 6bbc 47be
00000290: a485 3d3e f701 133e 80cc 2fbd b8f4 c5bd
000002a0: 4286 3e3e 6b07 2abe f48b 203d 4268 fabd
000002b0: 6779 00be 9ed4 d13c acb8 a7bc dd4f b2bc
000002c0: 14a5 8dbc 61cc 21be 0a70 4fbe 0089 c3bd
000002d0: b315 64be 7065 75bd c203 c8bd 6e93 91be
000002e0: e306 a4bc 2711 febd 87d8 023e 43d2 483e
000002f0: 1aeb 653d 617e 21bd f185 3ebd dc62 cbbd
00000300: a492 05bd 869c 793d a28e 093e d971 333e
00000310: 8324 a1bd 559a 983d 6705 82bb e9e3 283d
00000320: b850 0dbc df7b 213d 9b48 03bd 514f 133e
00000330: f6bc a8bd 8622 4e3d d538 7c3c 5c9e 6f3d
00000340: b40e b0bd edb9 2c3e acb5 c93e ebc1 ecbc
00000350: ffb3 6f3b cc10 343e 97a7 c23e f336 9b3e
00000360: 13a0 9b3e 7d9b 13bd 4608 293e c15c 1d3e
00000370: b2ca 943d 9d49 0a3e 980a b6bd a5b9 0fbe
00000380: 5a1d 7f3d dcda 4bbe ef18 d03c 524a 24be
00000390: deb0 1abe 0ca6 6cbd 6cc1 4fbd cf3c c9bd
000003a0: b792 043e 0351 6d3e d12b 2bbd 7190 a7bd
000003b0: 4442 7dbe e257 153e 1038 ce3e 8669 51bd
000003c0: 7920 eb3a 86bf e53d 55cd 07be e2a6 5ebd
000003d0: 1af7 f9bd ab26 f7bd e137 54be 0635 a4bd
000003e0: 3e22 f7bc 84dd 3cbe be74 4e3e 08e5 95be
000003f0: 15d7 12be e80d 2ebb 196f bfbd e909 d0bb
0.0456469 -0.052871764 0.10840659 -0.054753587 0.091912925 -0.16105683 -0.0013453906 -0.026913844
0.085932106 -0.17652525 -0.06992499 -0.008541269 -0.08751407 0.09580631 -0.29651427 -0.11571668
-0.15963739 -0.09881128 0.034282308 -0.27538314 0.02353692 0.07964118 0.1202105 -0.5004292
-0.04081596 0.030192927 0.219218 -0.12102228 0.055380125 -0.30380502 -0.3283875 -0.0033166313
0.15904847 -0.032017276 -0.0032022512 0.18632367 0.009732907 0.005158807 -0.26291305 -0.21331821
-0.2914359 0.20949927 0.21513201 -0.007233984 0.021419492 0.13727327 -0.30017745 -0.10863179
-0.48249233 0.053434853 -0.061635073 -0.07856858 -0.19920999 -0.2796008 0.08148329 -0.009762838
0.08427788 -0.10587403 -0.16147652 0.22706889 -0.07080354 0.25555634 -0.0059231278 -0.17690356
-0.059574433 0.12079562 -0.14733769 -0.0349905 0.21994875 0.16060682 -0.036851294 0.021250723
0.06271582 0.044675574 -0.0779842 0.26616216 -0.17462046 0.3535016 -0.017000398 -0.13127744
-0.011323137 0.06764417 -0.16534588 0.1475395 0.04261504 -0.17886515 -0.42848837 -0.15121983
-0.13229302 -0.06434939 -0.04716318 -0.05108906 0.15134011 -0.19298035 0.12839183 0.12057349
-0.11122922 -0.24442147 0.13197193 -0.28553647 -0.117067 0.0004752429 -0.1246948 -0.043224793
-0.15961458 0.086554475 0.202584 -0.09549817 -0.108700015 -0.023873163 -0.17270914 -0.05360568
-0.054435913 -0.03387108 -0.1409308 0.043773774 0.016548874 -0.08836613 -0.056374103 -0.009301616
-0.0334419 -0.066946566 0.3645368 -0.009236032 -0.23450603 0.029658535 -0.09827452 -0.056184556
-0.12019437 -0.12012172 0.007930079 -0.11152531 -0.00031570703 -0.080279075 0.16717029 0.1022305
-0.03265107 -0.031710815 0.083849736 -0.014924564 -0.05015748 0.095028326 -0.02703412 -0.010040822
-0.03848201 0.019208021 0.444796 -0.016090902 -0.44644573 0.19999404 -0.15437634 0.043636482
-0.14724632 0.099471904 0.31505546 -0.36728173 -0.20193338 0.040433895 -0.16296871 -0.15824457
0.06446958 0.18227483 -0.17850757 -0.1950547 0.18508011 0.14356218 -0.042919636 -0.09665817
0.18605903 -0.16604392 0.03919597 -0.12226917 -0.12546311 0.02561408 -0.0204738 -0.021766597
-0.01729063 -0.1580062 -0.20257583 -0.09547615 -0.22273903 -0.05991119 -0.09766342 -0.28432792
-0.020022815 -0.12405615 0.12777911 0.19611458 0.056132413 -0.039427165 -0.046514455 -0.09930965
-0.03261055 0.060940288 0.13433316 0.17523898 -0.07868292 0.074513115 -0.003967929 0.041232977
-0.008625202 0.039424773 -0.032051664 0.14385726 -0.082391664 0.050325893 0.015394409 0.058500633
-0.085965544 0.168678 0.39396417 -0.028901061 0.0036575792 0.17584532 0.38018486 0.3031536
0.30395564 -0.036036957 0.16507062 0.15367414 0.072652236 0.13504644 -0.08888739 -0.14035662
0.06228385 -0.19907707 0.025402514 -0.16043976 -0.15106532 -0.057775542 -0.05072157 -0.098260514
0.12946592 0.23175435 -0.041789833 -0.08181847 -0.2473231 0.14584306 0.40277147 -0.051126026
0.0017938755 0.11218171 -0.13261922 -0.05435837 -0.12205334 -0.12067922 -0.20724441 -0.08017926
-0.030167695 -0.18443877 0.20161721 -0.292763 -0.1433986 -0.0026558582 -0.09347362 -0.0063488376

fc2.bias f4 [64]
00000000: 6f1d 35bd a0f5 4bbd bdd4 603d 44fc d4bd
00000010: 69b5 b33d 2c5e f8bd fdc4 35bd 2b6a 893d
00000020: a4fb 053e 076d e93e a512 16bd 931d b23e
00000030: 757d 3c3c ad0c 00be 0590 d8bd 656b 8c3e
00000040: 3cea 613d 0922 58bd f2f9 79bd cc66 c23d
00000050: 1528 263b 9bb8 d53e ba55 18be 2f67 9dbc
00000060: 737c 82bd f7cd 49bd 3620 eb3c f08e 943d
00000070: 255b e1bd 2460 dd3d 6181 67ba 4e13 4dbd
00000080: 05a5 4fbd c6c4 533d b9fb 08bd d393 493d
00000090: 6531 eebc 9126 1cbe 6ba0 263e 924a 6ebd
000000a0: c3ac 21be 727c 073f 9d2c ab3e 0fa0 bbbd
000000b0: 87e0 503d 786b a9bd b81d ea3d e955 0ebd
000000c0: 2d89 d43d 106b f5bd 7f15 a7bd 9048 c53e
000000d0: abbc 91bd fdc5 a33c 9582 a03e b3fb 063e
000000e0: e23a 61be 7396 dbbd d4e5 8abd ba01 5d3c
000000f0: 44b2 623d 7bd4 443e 36f5 f3bb 0fdf d5bd
-0.044217523 -0.049794793 0.054890383 -0.10399678 0.087748356 -0.12127337 -0.044377316 0.06709703
0.13084275 0.45590994 -0.036638875 0.34788188 0.011504521 -0.12504835 -0.105743445 0.27425686
0.055155024 -0.052766833 -0.061029382 0.09492263 0.002535348 0.41742405 -0.14876452 -0.01921424
-0.06371393 -0.04926869 0.028701883 0.07253826 -0.110037126 0.10809353 -0.00088312296 -0.05006724
-0.050694484 0.05170133 -0.033443186 0.04921324 -0.029076288 -0.15249087 0.16272132 -0.058176585
-0.1578856 0.52924263 0.33432475 -0.09161388 0.050995376 -0.08272451 0.1143145 -0.0347499
0.10377727 -0.11983311 -0.08158397 0.38531923 -0.07116064 0.01999187 0.31349626 0.13181953
-0.21995118 -0.10722055 -0.067821175 0.013489181 0.05534579 0.1922168 -0.007445003 -0.10442936

fc3.weight f4 [4, 64]
00000000: 7897 94bd d6cc 823e dc9b 413e 61f8 3ebe
00000010: 066e 003f 9bf6 85be 6e93 793e 649e 11bf
00000020: 9f6f 393e 2905 153e a30c b3be f360 bd3d
00000030: c71b 5c3e 46b0 433d ae3e c8bc dd3c 1e3e
00000040: aaca eb3c 7206 2fbd ed5d 903e 8a27 683e
00000050: 6248 67bd 42aa 193e 43a9 2abd 045a a5bd
00000060: d9a2 a23d c436 75be 7de6 c1be 6ad1 583e
00000070: 6031 833e 0c1f 733e 6842 38be 98f1 153e
00000080: 6fca 733d b4ef d23e a076 b43e 3f6a 693e
00000090: 7dc8 e73d 9e41 25be e6ab ca3d 864b 843e
000000a0: ff0c 9d3d d216 283e 1108 243e 9526 1cbd
000000b0: cba7 43bd 367c 3dbe c9e6 1e3e 2318 0c3f
000000c0: 0fb9 34bd ffa9 16be 4709 94bd 7221 a23e
000000d0: 044a 203e 0dc3 c43e ae3f 2d3e d615 8b3d
000000e0: 2895 7dbe 86e9 3c3d c287 88bb 1afa 993d
000000f0: 27e8 d3be c06b 9c3e a4d9 e9bc 504a 313e
00000100: 6ecb 723e 0bce 563e 7e69 8f3e 39e4 7dbe
00000110: 966b e63e 2336 3aba cf34 883e 4876 3f3e
00000120: c473 163e 3071 0c3e 1702 2cbe 066a 4b3e
00000130: 453b 753e 48be 15bd bd06 f7bb de13 3d3e
00000140: 051c 22be f6ae 79bd 80bd 603e d7cb 993e
00000150: 5e4b 983d 4e57 3a3e a9eb 24bd 544e 2f3d
00000160: 4323 763e 9778 123e 4401 0ebe 9a54 7c3e
00000170: 71e2 303f c7a6 7d3e ac5d 0cbe 808e 2a3e
00000180: 9b28 3bbd 9fc5 1b3e 9576 a03e 27bf 3b3e
00000190: 337e 223e 1a20 05bf 6cfd 9d3d b528 a13d
000001a0: bd4e e23d 2b39 453e f9eb 413e d843 893d
000001b0: 188a 233c 0380 00be 0f86 593d 6344 bd3e
000001c0: 0f34 0d3e d3e2 32be 95c7 e1bd ec01 653e
000001d0: c2c7 833e 7c0f e73e 636e 393d 9edf 0c3e
000001e0: 1192 1dbe 6684 82be d9cd 733d 143b ab3d
000001f0: 4899 5fbe 87ca 473e 28b4 813c ff5a 803e
00000200: 2cd6 aebe d1db 973e 99a4 363e a4bc 9a3c
00000210: b552 053f a00d 01be 680b 113e 7945 8f3e
00000220: 6bca 593e a001 d33d 1879 cfbe a095 303e
00000230: 6f70 933e 09c5 f1bc 665c 98bd a271 923e
00000240: 53ab a13e df7f 1ebe 274d c2be 84ad d93d
00000250: 4f2f 3fbe 4649 843e a2d4 a8be 65f0 4d3e
00000260: bf69 c03e a3a7 8cbe 7e3f 57be 2070 6b3c
00000270: 126f 5c3f eb07 413e c6c8 f8bd c836 9ebd
00000280: 888f da3d c079 b63e f531 0f3f 407a b83e
00000290: 3558 7c3b 1f41 423e 5f11 163e 3541 f5be
000002a0: 2c22 333d 60e9 2e3e c4b6 623e b1d2 793e
000002b0: a1cc 203e 0654 2dbe 5f23 b53d 7cda db3e
000002c0: ebe8 403e 663d 0f3e 72a7 933d fee6 793e
000002d0: 0eb5 4dbe fdfd 663e 4576 313e 8fd8 5b3e
000002e0: ea31 86be 5d3e 263d 6a4f 273d ae99 553e
000002f0: 2d9e 49be d62d f43d 6aec 6abe 0aae e9bd
00000300: 736b a7bc 492c 993e 7890 bc3b cda0 8fbe
00000310: 680f 773e 8193 183d 9377 633e 05e6 b73c
00000320: f4fb d43d 9a40 6c3e bdd1 c3bd 1985 c03d
00000330: 2861 053f 1067 5cbe 192a 483d b36d 0e3e
00000340: 02a8 443e 2f68 143d 7e07 ab3e eac9 b03d
00000350: ad6b b63e b6dc 573e f373 933d 0911 123e
00000360: ee2e 7a3e 98e2 25bd bed1 acbe ac67 e43e
00000370: 03e9 99bc 52cf 9f3e 37b4 1fbe 81bc 7e3e
00000380: 3007 4ebe 07c3 c33e a66f c9bd cc92 b43d
00000390: 944b 16be 7588 933d 876b 213e af16 2fbe
000003a0: 4054 c9bd 2275 593e 35fc 293e efeb d3bd
000003b0: 9303 283e 84a8 53be 24c5 b53d 7f13 893e
000003c0: 09c6 3c3e 1fcc c9be 07ee 1bbf d2cd a73e
000003d0: e465 86bd eee7 ec3e 658b a53d a0d4 803e
000003e0: f552 25be f385 35be 3f76 b2be 0862 1dbd
000003f0: d23d bebe 887f 993d 53d9 13bf 505a 0a3c
-0.07255453 0.25546902 0.18907112 -0.18649437 0.5016788 -0.26164708 0.24372646 -0.5688231
0.18108986 0.1455275 -0.3497058 0.09247007 0.21494971 0.04777553 -0.02444395 0.15452905
0.028783161 -0.042730756 0.2819666 0.22671333 -0.056465514 0.15006354 -0.041665327 -0.0807381
0.07941217 -0.23946673 -0.3787116 0.21173635 0.25623608 0.23742312 -0.17994082 0.14642942
0.059519228 0.41198504 0.35246754 0.22794436 0.11317537 -0.16138312 0.09896068 0.2583887
0.076684944 0.16414955 0.16018702 -0.038122732 -0.04776744 -0.18504414 0.15517725 0.5472433
-0.044121798 -0.14713286 -0.07228332 0.31666142 0.15653235 0.38430062 0.16918823 0.06791274
-0.2476393 0.046121143 -0.004166574 0.07518406 -0.41388056 0.30550957 -0.028546162 0.17313504
0.23710415 0.20977037 0.28010172 -0.24794091 0.45003957 -0.0007103404 0.2660279 0.18697464
0.14692599 0.13715053 -0.16797672 0.19864663 0.23948391 -0.03655842 -0.007538645 0.1846461
-0.15831001 -0.06095787 0.21947289 0.3003833 0.0743625 0.18197367 -0.040263806 0.04279931
0.24036889 0.14303814 -0.1386767 0.24641648 0.6909552 0.24770652 -0.13707608 0.16655922
-0.04569302 0.15212105 0.3134047 0.18334638 0.15868454 -0.5200211 0.07714352 0.078690924
0.110501744 0.19260089 0.18937673 0.06702393 0.009981655 -0.12548833 0.053106364 0.36966237
0.1378939 -0.17469339 -0.110243954 0.22364014 0.2573834 0.45129 0.04527129 0.13757178
-0.15387751 -0.25491637 0.059522483 0.08360878 -0.21835816 0.19510852 0.015832976 0.25069425
-0.34147775 0.29659894 0.17836227 0.018888779 0.52079326 -0.12602854 0.14164507 0.2798269
0.21268623 0.10303044 -0.40522075 0.17244577 0.28796718 -0.029512899 -0.074394986 0.2860232
0.31576023 -0.15478466 -0.37949488 0.106287986 -0.1867039 0.25837153 -0.32974726 0.20111234
0.37580678 -0.27471647 -0.21020314 0.014369994 0.8610698 0.18850677 -0.121476695 -0.077252924
0.10671908 0.35639763 0.55935603 0.3603077 0.0038504724 0.18970154 0.14655064 -0.47901312
0.04373376 0.17081213 0.22140032 0.24396779 0.1570306 -0.16926584 0.08844637 0.42940128
0.18838851 0.13988265 0.07209672 0.24404523 -0.20088598 0.22557826 0.17330272 0.2146933
-0.26209956 0.040586818 0.04084722 0.20859405 -0.19689246 0.11922805 -0.22941747 -0.114101484
-0.020436978 0.299166 0.0057545267 -0.2805237 0.24126971 0.037250046 0.22213583 0.022448549
0.10399619 0.23071519 -0.09561489 0.09400386 0.52101374 -0.2152369 0.048868272 0.13909034
0.19204715 0.03623217 0.33404154 0.08632262 0.35629025 0.21080288 0.0719985 0.14264311
0.24431965 -0.0404993 -0.3375377 0.44610345 -0.018787866 0.3121286 -0.1559609 0.24876596
-0.2011993 0.38234732 -0.098357484 0.08817062 -0.14677268 0.072037615 0.15763675 -0.17098497
-0.098305225 0.21236089 0.16600116 -0.10347735 0.16407613 -0.20669752 0.08875492 0.26772687
0.1843492 -0.39413545 -0.60910076 0.32774216 -0.06562403 0.46270698 0.08083228 0.2516222
-0.16144927 -0.17726879 -0.3485584 -0.038423568 -0.3715654 0.07495028 -0.57753485 0.008444384

fc3.bias f4 [4]
00000000: 56c4 9e3e 946d 983e 3b58 3e3e da14 3d3e
0.31009167 0.297711 0.18588345 0.18464985
