p2_continuous-control/checkpoint_actor.pth (torch, 543138 bytes, 6 tensors)

fc1.weight f4 [400, 33]
00000000: a92c ecbd 7d5d 0e3e 9583 493c 8d00 4fbd
00000010: 5aa4 1abd 8ce8 12bb 1310 a5bc 4b8c c63c
00000020: d8dc eebd f28d 2ebd f6c7 cfba 147a 183b
00000030: d2db 26bc 169e c23d f043 13bb 65c8 21be
00000040: ec85 87bc 756f e0bb f9b6 d33c 7a78 dcbc
00000050: a7f8 7e3c 39de 7cbd a789 c1bd c9d2 1b3d
00000060: b226 2c3c 31ee 1cbe 06a6 53bd 770e 2dbd
00000070: 4c61 02bd c965 4b3d ed06 1e3d b74f eabc
00000080: 2d27 fc3e efdf 1cbe 576d 643d 0009 5a3c
00000090: 11d0 373c 5b2b 673c 9416 483d 273d 6cbd
000000a0: e1a5 a83d 1b13 973d e9d0 9fbb 5c6a 9d3b
000000b0: 05a8 623d d6ad 84bd 83ff f03c 5a9c 2b3d
000000c0: 2522 b0bd fd4d c13b cf9b ccbb 3e8c 253d
000000d0: 347b 4c3d 3ca9 4ebd 18be d93d 5174 97bd
000000e0: fca3 fdbd b323 af3d 981a 22bd 3393 aa3d
000000f0: 1699 bd3c a4e2 3fbb c3af 28bd 1b66 923c
00000100: ec03 3bbc b550 143f 6439 043c f2bf fd3d
00000110: 69be 0ebe 0d06 adbd 54e7 91bd 5498 72bd
00000120: a2c8 debc 7466 78bd d0ce 06be 7dfc 14bd
00000130: 8304 123d 1d98 dc3b 8af8 72bd 877a e03d
00000140: 3fbc 103d 52b2 103d 7354 f63c f4cf c23c
00000150: 2c7d 2bbd 40ae 0bbd ac2b 293c 3b34 3ebd
00000160: edce 27bd 524b fa3c f626 1b3d 13c6 843d
00000170: ddf5 3cbc e048 bf3d d159 2c3e ecd4 0bbd
00000180: 8f9b 1ebe 2bb2 3c3d 52ff 48bf 053a dd3b
00000190: 41e5 39bd 73e4 3dbe 7b69 8dbc 3fee ff3c
000001a0: 3f5c 9b3b 31ce 92bd 7179 49bc dd32 92bc
000001b0: e178 d4bd 056e 59bc 9e71 85bc 74fe 0abe
000001c0: b454 be3d d9de 763d e9fe 54bd a591 8abc
000001d0: 40f8 04bb 3391 23bd 0e12 093b 7ff6 38bd
000001e0: 0892 973d c6e0 4bbd 62e9 163c 24f5 823c
000001f0: 6caa d63d 2bb0 76bd 28b8 abbc 8858 15bd
00000200: 0058 54b8 8178 92bc 8003 08ba 034a ce3e
00000210: 3558 363d e09e 3a3d db66 97bd e787 803c
00000220: 2c56 293d 3fb7 7abd 8a2f 9b3c bbde 3bbc
00000230: 6378 1ebd f1d9 9d3d 364a 04bc c521 dfbc
00000240: 473f 77bd 5c92 86be 0b1c 65bd 6ae8 043d
00000250: 388f 863d 3953 febb d7bd 7a3c f422 bc3c
00000260: acf7 b8bd ea08 133d 4f26 9f3c 3757 f0bd
00000270: e343 c63b 063b f83d d838 1a3d 663d a9bd
00000280: c643 353e e080 1bbd 7647 6a3d 68c4 19bc
00000290: ecd7 0d3f 6148 e2bc 4dfb 4cbd 7cd4 0abd
000002a0: ea90 153b 21dd 883d a042 15bd f009 973d
000002b0: 62eb c5bb a227 e2bd 3f7b 3ebd e219 54bd
000002c0: fdfd b93d cb5f d7bd d0eb 0fbe 83e9 bb3d
000002d0: 1dc9 86bc cd53 0abc e074 0bbd 2902 cebb
000002e0: f367 a0ba 3e70 59bc 5eb1 2f3c 62fa 3ebe
000002f0: 4bf7 f1bc 3fbb ab3c 5a70 d7bc bf2c ef3d
00000300: 0c65 1abd e021 debd 8927 403d efdd aa3d
00000310: c03e 713a 2d4a aabe 502f 883d 673e 173e
00000320: 0afc ed3c 18ba 3ebd 6e5a 933d 4341 5bbd
00000330: c786 843d 9313 5abc 72d1 8c3c ca78 263e
00000340: 18d8 b03d 6d73 26be da49 313e c150 aabd
00000350: a7e6 edbd f3cf 7a3d 93c9 16bc 9023 dcbc
00000360: 57cd 91bd 7bea 503b ec42 c1bc 78ec 16bd
00000370: d51b fbbc 9c4f 1f3d e664 cebd 378f debb
00000380: f39d 48bd 6d1c 353d a246 adbc 7f70 2fbd
00000390: e953 85bd ace8 2c3c 06bb 65be 2929 81bd
000003a0: 5a17 30bc 5f7f f9bd ea26 c23b 1ed7 8abc
000003b0: 408f 3cbd f0c6 143d 396f 08bd bd5a 98bd
000003c0: 03d0 fabc 8c74 063d 54da febd 54ad 90bc
000003d0: 3c58 fbbd 661c 9bbd b464 043e 044a 83bb
000003e0: c0c3 8fbc aedd 433c 6317 5abd 40c8 e93d
000003f0: 2f3b d8bd 5350 283e a444 413d cfef cb3c
-0.11531956 0.1390285 0.012299438 -0.050537635 -0.037754394 -0.002241644 -0.020149266 0.024236819
-0.11663216 -0.04261584 -0.001585244 0.0023266124 -0.010184245 0.09502809 -0.0022470914 -0.157991
-0.016543351 -0.006849224 0.025844084 -0.026912916 0.015562213 -0.061735366 -0.09450083 0.038042817
0.010507273 -0.15325238 -0.051672004 -0.042250123 -0.03183107 0.049657617 0.038580824 -0.028602464
0.4924864 -0.15319799 0.055768337 0.01330781 0.0112190405 0.014109458 0.048849657 -0.057675507
0.08234764 0.07376691 -0.004877199 0.004803939 0.055336017 -0.06478469 0.029418712 0.041897155
-0.086002626 0.0058991895 -0.00624416 0.04041695 0.049922183 -0.050454363 0.10631961 -0.073952325
-0.12384793 0.08551731 -0.039576143 0.08328857 0.023144286 -0.0029279375 -0.041183244 0.017870953
-0.011414509 0.5793565 0.008070324 0.12390126 -0.13939823 -0.0844842 -0.071242005 -0.059227303
-0.027195279 -0.060644582 -0.1316483 -0.036373604 0.035648834 0.0067320005 -0.059319057 0.1096087
0.035335775 0.03532631 0.030069565 0.0237808 -0.04186742 -0.034101725 0.010325354 -0.04643653
-0.040968824 0.030553494 0.037878953 0.06483092 -0.011533228 0.09340072 0.16831137 -0.034138605
-0.15489028 0.04606835 -0.7851459 0.006751301 -0.04538465 -0.18544178 -0.017262211 0.031241534
0.004741221 -0.07168234 -0.01229702 -0.01784652 -0.10374618 -0.01327086 -0.016289528 -0.13573629
0.092934996 0.060271118 -0.052000914 -0.016915152 -0.002028957 -0.039933395 0.0020915302 -0.045156952
0.074009 -0.049774908 0.009210916 0.015986033 0.10481724 -0.0602266 -0.020961836 -0.036461383
-5.0626695e-05 -0.017879726 -0.000518851 0.4029084 0.044517715 0.04556167 -0.07392665 0.015689803
0.041341946 -0.061209913 0.018943567 -0.011466677 -0.03868903 0.07707585 -0.008074334 -0.027237782
-0.06036308 -0.26283538 -0.055934947 0.03244821 0.065702856 -0.0077613858 0.01530405 0.022965886
-0.09031615 0.035897173 0.019427447 -0.11735385 0.006050573 0.12120633 0.037651867 -0.08263664
0.17701635 -0.0379647 0.057197057 -0.009385206 0.55407596 -0.027622404 -0.050044347 -0.033894047
0.0022821971 0.06682802 -0.03644049 0.07374942 -0.0060400227 -0.110427156 -0.046504255 -0.051782496
0.090816475 -0.10516318 -0.14054799 0.09175398 -0.01645332 -0.008442831 -0.034047008 -0.0062868786
-0.001223801 -0.0132713895 0.01072344 -0.18650201 -0.029536864 0.02096331 -0.02629869 0.116784565
-0.037694022 -0.10846305 0.046912704 0.08343112 0.0009202771 -0.33259717 0.06649649 0.14769898
0.029050846 -0.04656419 0.071949825 -0.053529035 0.06471019 -0.013310331 0.017189715 0.16257015
0.086349666 -0.16254969 0.17313328 -0.08316184 -0.11616259 0.061233472 -0.0092033325 -0.026872426
-0.071192436 0.0031878043 -0.023591481 -0.036846608 -0.03065292 0.03889428 -0.100778386 -0.006791975
-0.048978757 0.044216562 -0.021151844 -0.042831894 -0.06510145 0.01055352 -0.22434625 -0.06306679
-0.010747755 -0.12182497 0.005925049 -0.016948279 -0.04603505 0.036322534 -0.033309195 -0.07439182
-0.030616766 0.03282599 -0.124439865 -0.017660774 -0.12272689 -0.07573776 0.1292904 -0.004006626
-0.017549396 0.011954708 -0.05324496 0.11415148 -0.105581634 0.16436891 0.0471846 0.024894623

fc1.bias f4 [400]
00000000: a96b 68bd 3b00 97bd ac0e 2b3d 38fe c93c
00000010: ce32 55bd 0516 c4bd 45fe 2dbe bf11 27be
00000020: 463f c4bd da49 cbbd 41b3 2a3e c517 56bd
00000030: 435d 383e 57d4 5fbc aa8f f1bd 6053 12bb
00000040: fe0f b5bd 0f7c 5abe b30c 07be cbe6 963d
00000050: 612d 7dbe 8294 49bc 4cc9 38be 60a2 a9bd
00000060: d33d 18bd 6987 1ebe f487 8abd 25b2 ef3d
00000070: 7a1e 1d3e fd1c 6abd 9f87 553d cfd1 7c3d
00000080: 5c02 303e edf0 45bd cc68 6f3d 1d65 41bd
00000090: 93a3 d1bd 4188 363e 83a7 233e 1efb f9bc
000000a0: afc1 0b3e 1412 0c3d 9a1c c03d bf1a 9abc
000000b0: f698 8e3d 6fca a4bc e354 5dbd 3d57 263e
000000c0: 04f1 493e 9c94 dfbd ddaa 22be 91c2 253e
000000d0: c13b 8a3d cf2b c73d 05c8 2ebd 5f5b 083e
000000e0: f04d 8c3d c5ed 73bd cc10 933c 2f33 383e
000000f0: 58d7 30be 5fb4 15bd b881 823d 6513 01be
00000100: 567e edbc caae 12be 4f22 533d 7c0b 2dbe
00000110: c064 873d bea9 bfbd 5602 6a3d 209a e9bc
00000120: 5815 cf3d d23e 43bd 22c5 fa3d f61d 263e
00000130: 1694 d6bd bf3f b5bd 95b3 583e ce4d 593d
00000140: 49ca 16be 3f76 debc 9b5e 12bd 0307 96bd
00000150: 5fd8 473d d287 433e 2b0c 0c3e 2547 0a3e
00000160: 906d 873d 672e 59bd f80a bbbd 5877 203d
00000170: 9b3a a7bb 2d1c ddbb bb22 d2bc bdff 00be
00000180: e86d b53c 51be 3e3e 1a6c 9fbd f32e 2e3e
00000190: 1a5d 8aba 2550 413e 96db e1bc 0121 2b3e
000001a0: 1d39 1fbc a4e9 503e a27c 7a3e 215a 1ebe
000001b0: 6b11 f3bd 0482 b33c e520 e8bb 0085 b5bd
000001c0: 54c2 48bd e308 31be 927a 0e3e eca6 e63d
000001d0: 4e01 c93d 0108 6a3d 3998 01be 88a3 27be
000001e0: 24fe aebd 532a 54be 3d2c 41be 876e 043e
000001f0: 3443 6fbe 3818 7f3d 6f90 e03d 6d1d 8b3d
00000200: cb3d 8b3c 1ccd 413d 323a 80be 2509 1b3e
00000210: 5d69 4e3e 04e1 e23d 7d3c 12be 43e8 0e3e
00000220: 3651 48bd 5100 8bbc 6c11 693d 6204 a03c
00000230: cc0a f23b 6609 8cbc a827 3dbd 9357 443d
00000240: 0572 aabd 4dc0 1e3d 3efc 253d d559 eabd
00000250: 9774 34be 8604 92bd 0efb d1bd 6d01 4d3d
00000260: 951d 15bd 5653 29be 2683 32bd 7b59 abbd
00000270: 9d18 40bc 997d 9ebd d413 cbba 709a bbbc
00000280: 856c 4dbd 1c04 533e 9b92 b63d 808f b33d
00000290: 77d1 183e f48c 46be 8361 eb3a 4add 003e
000002a0: 9482 11be 3182 00bd 1a7f 3fbc 0bd0 2dbe
000002b0: c9ea e0bc c7f0 9a3b 98b7 bdbd d7b1 1b3e
000002c0: 5e62 03be 92f0 aebd e9ea 0a3e 64fe d23d
000002d0: 778e d23d 3850 01be 83ed 1ebe 5217 3bbe
000002e0: d742 62bd 1289 8fbe 791d aebd 6ccd 07be
000002f0: b291 233e 56c8 e33d aa4d 023d 5b0d 99bd
00000300: b571 c5bd abab c93d 7001 2dbc 9de2 3a3d
00000310: e1b1 48bd ab0f 0cbe 5faa a63d e1ab e0bc
00000320: d896 99bc 4dec d7bd 6712 fcbd e958 6ebc
00000330: ad4b c1bd f74b 0f3e cdba 303d 3632 f9bb
00000340: 8023 213e 8b95 b23d 40ad 11bd a1b7 4e3d
00000350: c169 5f3d 4ac3 19be 706b 253e 1f01 14be
00000360: 1474 70be 90f4 1f3c 2f73 9abb 266f 643d
00000370: 4535 48be 779c 20be bf2d c9bd 3fb4 ccbd
00000380: 19c2 673e edbd 0dbd 9f63 423e f5fe 6b3d
00000390: 3693 0d3e 1ded 3fbe ede6 d43d eb91 c73d
000003a0: 7257 fa3d 6ee8 f8bd d4eb 74bd dd0a 003e
000003b0: 511d e9bd 7cef d7bd 0392 40bd 2f0e 7ebd
000003c0: 3ed3 953b 83bc 10be cfd3 0f3e 101e 093e
000003d0: 34d3 01be 0936 5a3d 3288 073e 9520 f23d
000003e0: 20a1 083c a5a5 4ebe 7513 d1bc e93e 033d
000003f0: 4a7c 8bbd 8f6e d0bd 2c25 4b3e 7c0f 1ebd
-0.056743298 -0.07373091 0.04176204 0.024657354 -0.052050404 -0.095745124 -0.16991527 -0.16315363
-0.09582381 -0.099261954 0.16669942 -0.052268762 0.18004327 -0.013661466 -0.1179498 -0.0022327527
-0.08840941 -0.21336387 -0.13188438 0.07368239 -0.24724342 -0.012303473 -0.18045539 -0.08282924
-0.037168335 -0.15481342 -0.06764212 0.117039 0.15343657 -0.05715655 0.05213129 0.061723527
0.171884 -0.048325468 0.05844955 -0.04721557 -0.102362774 0.17825414 0.1598187 -0.03051525
0.13648103 0.03419693 0.09380455 -0.018811582 0.06962769 -0.02011606 -0.054036032 0.16244216
0.19720846 -0.10917017 -0.15885492 0.16187502 0.067496784 0.09725153 -0.042671222 0.13316105
0.06850803 -0.059552927 0.017952345 0.17988275 -0.17269647 -0.03654897 0.06372398 -0.12605055
-0.028990906 -0.14324489 0.05154639 -0.16898912 0.066110134 -0.09358548 0.057131134 -0.028515875
0.10111493 -0.047667332 0.12244631 0.16222367 -0.10477464 -0.08850049 0.21162255 0.053052716
-0.14725603 -0.027155994 -0.035734754 -0.07325556 0.048790332 0.1909478 0.13676517 0.13503702
0.06612694 -0.05302277 -0.091329515 0.039176315 -0.005103422 -0.0067477436 -0.025651326 -0.12597556
0.022147134 0.18627287 -0.077842906 0.17010097 -0.0010556311 0.18878229 -0.027570527 0.16711809
-0.009718207 0.20401627 0.24461606 -0.15464069 -0.118685566 0.021912582 -0.0070839995 -0.08863258
-0.04901345 -0.17288546 0.13913944 0.112623066 0.09814702 0.05713654 -0.12655725 -0.16370976
-0.08544567 -0.2071927 -0.18864532 0.12932788 -0.2336548 0.062278956 0.109650485 0.06792722
0.016997239 0.04731475 -0.250444 0.15140207 0.2015738 0.110780746 -0.14280887 0.13955788
-0.048905574 -0.016967924 0.05690138 0.01953334 0.007386541 -0.017094325 -0.046180397 0.04793508
-0.08322529 0.03875761 0.04052376 -0.11442915 -0.176226 -0.07129769 -0.10252963 0.050050188
-0.036405165 -0.16535696 -0.043582104 -0.083666764 -0.011724618 -0.077387996 -0.001549358 -0.02290079
-0.05015232 0.20607036 0.089146815 0.08767605 0.14923654 -0.19389707 0.0017958138 0.12584415
-0.14209968 -0.03137416 -0.011688018 -0.16973893 -0.027455704 0.00472841 -0.09263533 0.1520456
-0.12830493 -0.08541979 0.13566174 0.103024274 0.10281079 -0.12628257 -0.15520291 -0.18270615
-0.055239525 -0.28034264 -0.08501715 -0.13261956 0.15973547 0.111221954 0.031812347 -0.074732505
-0.096408285 0.09847196 -0.010559425 0.04562627 -0.048997764 -0.13677852 0.081379645 -0.027425708
-0.018748686 -0.10543118 -0.123081975 -0.014547565 -0.09438262 0.13993822 0.043146897 -0.0076048626
0.15736198 0.08719929 -0.035565615 0.05046809 0.054544214 -0.15015903 0.16154265 -0.14453553
-0.2348178 0.009762898 -0.004713438 0.055770062 -0.1955157 -0.15684687 -0.098231785 -0.09995317
0.22632636 -0.034604955 0.18983315 0.057616193 0.13825688 -0.18742795 0.10395608 0.097446285
0.1222371 -0.121537074 -0.059795216 0.12504144 -0.11382545 -0.10543725 -0.047014248 -0.062025245
0.004572301 -0.14134412 0.14045642 0.13390374 -0.12678224 0.05327419 0.13235548 0.11822621
0.008339196 -0.20180376 -0.025521973 0.032042418 -0.06810816 -0.101773374 0.19838399 -0.038588986

fc2.weight f4 [300, 400]
00000000: 752d 283e a7ff 623e 0546 f93d 2456 243d
00000010: d92b aebe 17e2 84bd ecd9 cc3d 59bb 8fbc
00000020: c1ef 993d 29fc a5bd 0613 1bbe 5005 3b3d
00000030: ad0a 3cbd 9a57 baba 373f 063e 7fbd d83d
00000040: 28dd ac3d 42be 3d3d ee24 7f3e b10d fa3d
00000050: 9bc3 253e bba6 5ebe bebf 74be f1e8 4a3e
00000060: c785 4ebd 0a24 e8bd 62e8 eb3b 6829 68bd
00000070: 2508 b8bd 7583 113d 1e2e 2bbd c4fb 2dbe
00000080: cb29 07be 9746 4fb9 825c 8abe 6d87 e4bd
00000090: a328 34be 8fac 8ebb 1b27 3f3d c519 2a3d
000000a0: 4ee7 b93c fb58 333e f42d 5dbd 7a9f c13c
000000b0: a8f6 2b3e 7439 95bd ad98 a1bc 04a7 cabd
000000c0: d3f9 953d ce4b 283d c6ed 9f3e b665 0a3e
000000d0: 5b20 02bd 9e9f 09be d624 9f3d 7957 033e
000000e0: 0313 873d d6f8 b2bb f845 77be f08d 78bd
000000f0: f95e 2b3d c429 e93d 17f4 d33c 6f69 56be
00000100: d01c 38be f76e 953d 95a4 8b3d ac6e a23c
00000110: 59d2 383d 13dc ad3d b8e9 8dbc 12b2 83bd
00000120: 30ee 4abe 8b6f bd3d cc41 4fbc 3bea 8a3d
00000130: cc7b b3bc 8155 0f3d 3f2e 2d3b 51b4 1cbe
00000140: c952 d73a 2676 f93c da42 51bd b976 fabd
00000150: 4de8 44bd 4799 99bd 50e9 3fbe bf74 50bd
00000160: ad5b 6bbc 2526 973e bb7e 5b3c 66a0 643c
00000170: 7ebb 71bd e198 2abe d617 283d 8a84 9e3c
00000180: 6926 a73d df5c c63d 3ccc 283e ccd5 373d
00000190: 5a96 863d 9886 19bd a56f c9bc be64 623d
000001a0: 98f6 f2bd c2da 8bbd d2d7 1d3e 1c26 873c
000001b0: fd0e 46be a066 7abd 564c b8bc f9fe 8e3d
000001c0: ed13 12be 1514 123e 7f37 843d c190 50be
000001d0: 1978 3f3e ee86 a4bd d700 34be ff2c 193c
000001e0: 50db 7abd d1a3 c13e 9e01 8cbd 1f95 453e
000001f0: 8764 ebbe 3126 8c3d ddd9 453e 3250 05bd
00000200: b2dd 273d 64d4 c0bd 9d07 07be 2889 043e
00000210: 89f5 bfbd d534 c0bd 38a7 5b3d e7c8 ef3c
00000220: fb67 a63e d489 833e 87e8 9b3d 9d07 eebd
00000230: a737 bd3d 4f16 183e 8738 1abe 2b23 20bd
00000240: 8839 8b3c 3209 e23d 05ed 0cbe b0ef 18be
00000250: 5bef 923b 4ba6 a93d f6a7 59be 1def e43d
00000260: 7d34 f2bc 5738 dd3c 2a8f 8c3d f548 cd3d
00000270: 9cb8 dbbd 874d 59bd 2495 bebd da75 6cbe
00000280: 0dda ffbc 80ea 19bc cd7f 94be da1e 8bbd
00000290: 1096 40bd 8548 703e 5464 53bd 7ecf 8ebd
000002a0: 6908 8d3c 5ff1 0fbe 5634 92bd 0f4f 513e
000002b0: 61f6 0fbe 19c6 d83d a847 b63d dce4 aebd
000002c0: d448 34bd f24b ecbd e29b 7fbd fa74 0e3e
000002d0: 2d75 41be 6467 91bd 1121 1c3c 017a 8abd
000002e0: eaac 83be d9bb 753c 48d9 c43c 88cd 5dbd
000002f0: 1b93 103e f643 2fbd a114 eb3d cf80 d23d
00000300: a5c8 2c3e 4c46 783d 5aae e0bd 7d78 e2bd
00000310: 9d72 5cbd 82b0 0b3e 3358 eabd fc14 1cbd
00000320: 3c5d abbc 2dfe 3a3d eb54 8d3d 5965 efbd
00000330: 3fcd f2bc e146 53bd c48c b23d 7e9f 95bc
00000340: 2a3d b0bd ce2b 903d 5e97 b5bd 8a68 cd3d
00000350: cc95 953d 4ba7 7b3d 03fb 1dbe 3565 c4bc
00000360: 7e3d 8dbd 3eb5 d73b dfa7 b7bd f3a3 55be
00000370: c547 aabd bb6e 02bd 3e84 0e3e 6b06 cb3c
00000380: 0f13 d43d 0415 663c 77c3 123d 4122 8bbc
00000390: 3177 e73c f0b5 4cbd f75f 2ebd cea4 2bbe
000003a0: 03af b6bc 544d 95bc 7c24 d33d 7568 6fbd
000003b0: 8eaa 14bc f5c1 3f3c b2f0 b53d 5a62 84bd
000003c0: 47db 853c 6ebf 8abe f500 e23d f288 8abd
000003d0: 58f8 3c3c ee62 a2bd d8ea 623e ac95 bf3d
000003e0: 36ed 4dba 2214 06be 47be 253d 31f1 debc
000003f0: 7f7d 033d ee2f b3be 1257 85bc 898a 86be
0.1642359 0.22167836 0.12171558 0.040121213 -0.34017828 -0.06488436 0.10002503 -0.017545389
0.075164326 -0.08104736 -0.15143976 0.045659363 -0.04590862 -0.0014216781 0.13110052 0.105830185
0.0844062 0.046324022 0.24916431 0.12209643 0.16187899 -0.2174329 -0.23901269 0.19815423
-0.05042055 -0.11334999 0.007199333 -0.056680113 -0.089859284 0.035525758 -0.041792028 -0.16990572
-0.13199537 -0.00019767355 -0.27023703 -0.11158643 -0.17593627 -0.0043540667 0.046668153 0.041528482
0.022693302 0.17514412 -0.053998902 0.023635615 0.1679331 -0.07286349 -0.019726122 -0.09895137
0.07323041 0.041087918 0.31236094 0.13515362 -0.031769138 -0.13439795 0.07770698 0.12826337
0.06595423 -0.0054617925 -0.24147785 -0.060682237 0.04183862 0.11384919 0.025873227 -0.20938657
-0.17979741 0.072965555 0.06818501 0.019828163 0.04512248 0.084892415 -0.01732336 -0.064304486
-0.19817424 0.09249791 -0.012649965 0.06782957 -0.021909617 0.034993652 0.002642527 -0.1530316
0.001642787 0.030451845 -0.051089145 -0.12229676 -0.0480731 -0.074999385 -0.18741345 -0.050892588
-0.014365119 0.2952129 0.013396914 0.013954258 -0.059016697 -0.16659881 0.041038357 0.019350309
0.08161623 0.096856825 0.16484159 0.044881627 0.06571646 -0.037481874 -0.02458937 0.055271856
-0.1186344 -0.06828834 0.1541436 0.016497664 -0.19341655 -0.061133027 -0.022497337 0.06982226
-0.14265414 0.14265473 0.064558975 -0.20367719 0.18698157 -0.08033548 -0.17578445 0.009349107
-0.06124431 0.37820294 -0.06836246 0.19295166 -0.45975134 0.06843222 0.1932139 -0.032547183
0.04098291 -0.0941551 -0.13186498 0.12942946 -0.09373004 -0.09385077 0.05362627 0.029270602
0.32501206 0.25691092 0.076127104 -0.11622546 0.092391305 0.1485226 -0.15060626 -0.03909604
0.016995206 0.1103691 -0.13762291 -0.14935184 0.0044841 0.08283671 -0.21255478 0.1117842
-0.029566044 0.027004404 0.06863244 0.10023681 -0.10728571 -0.05305245 -0.0930579 -0.23091832
-0.031231904 -0.009394288 -0.29003754 -0.06792994 -0.04701811 0.23465164 -0.051609352 -0.0697317
0.017215924 -0.1405692 -0.071388885 0.20440315 -0.1405883 0.10584659 0.08900386 -0.08539745
-0.044014767 -0.11537923 -0.06240452 0.1391181 -0.18892355 -0.07099798 0.009529368 -0.06761552
-0.2571786 0.0149984 0.024029389 -0.054151088 0.14118616 -0.042789422 0.11478544 0.102784745
0.16873415 0.060613915 -0.10970755 -0.110581376 -0.05382024 0.13641551 -0.11442604 -0.03810595
-0.020918481 0.045652557 0.069009624 -0.116892524 -0.029638885 -0.051581267 0.08718255 -0.018264528
-0.08605416 0.07039605 -0.088667616 0.10029705 0.07303962 0.06143884 -0.15427785 -0.02397404
-0.06896494 0.006582885 -0.08967566 -0.20863323 -0.0831447 -0.031843882 0.13917634 0.024783334
0.10355198 0.014043096 0.03583094 -0.016984107 0.028255077 -0.049978197 -0.042571988 -0.16762087
-0.022300249 -0.01822535 0.10309693 -0.058449227 -0.0090738665 0.011703958 0.088837996 -0.064640716
0.016339911 -0.27099174 0.11035339 -0.067644015 0.011533819 -0.079290256 0.22159898 0.093547195
-0.00078554766 -0.13093618 0.040464666 -0.027214618 0.032102104 -0.34997505 -0.01627687 -0.2627757

fc2.bias f4 [300]
00000000: 7a1b bc3c 0bcb 423b 39af 37bc b424 37bc
00000010: 5a4b 2d3d 34d2 b13c 6b5e 5fbd 3543 a23d
00000020: 8f71 123d 8475 923d 00e8 d5bc 34d0 8bbd
00000030: f259 1dbb 2821 ad3c e581 7e3a cf87 34bd
00000040: 3405 183c 22d3 c03a 02d1 b13d ce13 db3c
00000050: 667d a1bc 47bb e53d b63b fd3a 7f5a 3e3d
00000060: 6378 553d fa1a b33c 7310 3abc f27d 8abc
00000070: 970d 113d e3b3 f43c 526c d9bc 9aa8 1b3c
00000080: 0b8c 873d d734 94bc 0b76 1d3c 12fe e93c
00000090: b17f 5a3c d539 21bd b7c9 093d e4bc c93c
000000a0: 6117 6d3d 580e 993c 1947 23bd fe86 333d
000000b0: 3bef 923d c51e 54bc a961 a5bd facf 55bd
000000c0: 1dfd cabc 82d4 efbc b2ed c8bc 947a afbc
000000d0: fecf e6bb 2477 cfbb 1705 9eba 092a afbc
000000e0: 38d0 86bd 514a 28bc 0722 40bd 7663 14bd
000000f0: 963d 8f3d 47d0 1c3d 5467 4dbd 2989 fc3b
00000100: d57a 033e f1c9 f23c 1cee 803d d0d1 153d
00000110: b50e fe39 081d c5bc a9c9 d8bc e4fd 22bd
00000120: b215 ac3d b049 1fbc e0ee 513d 8224 54bd
00000130: 041f 3dbd 19d1 e63c 408e a9bc b8b1 cb3c
00000140: a0d7 c0bc e594 9ebc d0d9 d0bc b866 94bc
00000150: f05c 2ebd c190 7dbb 691b d33b 96cd 3c3c
00000160: 8012 b4bc 0680 6d3d 513e 6ebb 37df 35bc
00000170: 055a 523d 4515 6abd 2a2a cb3a bfc2 fb3c
00000180: 10be 15bb 9cf5 5c3d ce69 40bd 5f48 153d
00000190: a72e dd3c c9b3 23bc 7ecc aabd 9578 afbd
000001a0: a789 873d 23d4 913a 548b 683c 460a 3cbb
000001b0: b071 8f3c 5fe7 fb3c 933d 503d 278b 333d
000001c0: 5e0b 163d 888b 54bd 225f 7abd a3c6 713d
000001d0: c253 5b3c 723d 593d a24e 343d 49a3 b03d
000001e0: ac16 0dbd 2348 a5bc e813 21bb dc3f 0c3d
000001f0: 954a c23c 9a38 e63c 16ac c93c 8216 e23b
00000200: f89a 003d d929 79bc 5799 dc3b e827 adbd
00000210: 4b6d fcbc d15b 73bd a519 673d ca0d 1ebc
00000220: 2cfa 66bd 31f6 5f3d 1e02 723c d7ad 5abc
00000230: 1a0b 6abd 4237 e03b 0c8d 84bc 2155 48bd
00000240: 4e5a 033d 888c 453d 4f21 71bc b49b b3bc
00000250: 61ad 3cbd a9a0 293d 8efe a0bd 7ea6 f73c
00000260: c721 a6bc ddca 503d b45f 813a 8bf6 c8bc
00000270: f122 063c 290c 4a3c 4880 96bd 6fb8 983b
00000280: 8aba 71bb 14a6 213d fd0d c2bb 6257 133d
00000290: ac2f 87bc 0471 a6bc db6f 2fbc dec7 773d
000002a0: 8b6b 9fb9 1a14 9e3d 781f 233c 0a59 3c3c
000002b0: 0247 babc 03ea 6bbd 9274 943c 50c8 adbd
000002c0: 70db 0cbd f025 b23b 46fb 4abd 82f9 c43c
000002d0: ed76 a53d 4258 3a3d aad9 253d e817 edbc
000002e0: 710b 123c bc06 233d 30bc c13d 8e05 153d
000002f0: e93a cb3c ee2d 0ebc 92a5 02bd 47e9 9b3d
00000300: 5603 60bd 0035 833c 4097 153d 7cf0 263d
00000310: 00e7 1abd a2a9 ffbc b684 3dbc ac96 7aba
00000320: 09bc 813c 2095 10bd 6d60 0cbd 06e1 7c3c
00000330: 51f1 28bd 887e 013d 2c63 acbc 2091 07bd
00000340: e26a d2bc a7cc 673d 2a92 16bd d0ea ad3d
00000350: 466d 02bd c60d 30bb bf81 fe3c b157 913d
00000360: 744f 7b3d 9e32 77ba ff00 b63d cebd b53d
00000370: 0374 83bd 1c84 0e3d a289 b3bb d952 3ebd
00000380: 305f 893d 0d34 55bd 0d24 85bc 3663 3a3c
00000390: 9b6a 47bd 353c 313d 82b7 d33c 088a ce3b
000003a0: 1969 e53d 4b5b d63b 6c27 ab3d a6af 36bd
000003b0: f6c3 f3bc a01d 2e3d 6b25 fdbc 161b 93bd
000003c0: ad79 133c aaf6 683d 5980 9dbc 4149 a2bd
000003d0: 35f7 793d 167d 5fbd 02f0 0e3d 9bad 94bc
000003e0: f445 473d 25da f438 6db4 4d3c d4aa f4bc
000003f0: c2a6 d93c 78f6 5a3d 1a90 edbc ffa9 47bc
0.02296232 0.0029723074 -0.01121121 -0.011178184 0.04230819 0.021706678 -0.054533403 0.07922975
0.03575283 0.071513206 -0.026111603 -0.06826821 -0.002400991 0.021133974 0.0009708687 -0.04407483
0.009278584 0.001471136 0.08682443 0.026742842 -0.019713115 0.11217361 0.0019320163 0.046473023
0.052116763 0.02186345 -0.011356461 -0.016905759 0.03541335 0.029870933 -0.026540909 0.009500647
0.06618508 -0.018091602 0.009610663 0.028563533 0.013336108 -0.039361794 0.033639636 0.024626203
0.057883624 0.018683597 -0.039862726 0.04382991 0.07174536 -0.012946789 -0.08075268 -0.052200295
-0.024778897 -0.029276136 -0.024527404 -0.021420754 -0.0070438376 -0.0063313413 -0.001205596 -0.021382349
-0.06582683 -0.010271625 -0.04690745 -0.036227666 0.069941685 0.038284566 -0.05014737 0.0077067805
0.12839825 0.029637309 0.06295416 0.036577046 0.00048457613 -0.024061695 -0.026463347 -0.03979291
0.084025756 -0.009722158 0.0512532 -0.05179263 -0.046172157 0.028175877 -0.020697713 0.024865016
-0.023540318 -0.019358108 -0.025494486 -0.018115386 -0.0425691 -0.0038691016 0.0064424765 0.011523625
-0.021981478 0.05798342 -0.0036353061 -0.011100582 0.05135538 -0.05714919 0.0015500237 0.03073251
-0.0022848882 0.05394517 -0.046975903 0.03644597 0.026999785 -0.009991595 -0.08339785 -0.08567921
0.06618052 0.0011125844 0.014193375 -0.0028692647 0.017510265 0.030749975 0.05083997 0.043833878
0.036631934 -0.05189088 -0.061125882 0.059027325 0.013386669 0.053037114 0.044020303 0.08624894
-0.03444545 -0.020175999 -0.0024578515 0.03424059 0.023717204 0.028103162 0.02461819 0.006899656
0.03139779 -0.015207731 0.0067321467 -0.08454877 -0.030813834 -0.059413735 0.05642094 -0.009646842
-0.056390926 0.054678146 0.014771013 -0.013347111 -0.057139494 0.0068425247 -0.016180538 -0.04890931
0.032068543 0.048229724 -0.014717414 -0.021924831 -0.046063785 0.041412983 -0.078610525 0.030230757
-0.020279778 0.050974716 0.0009870441 -0.024531623 0.008187042 0.012332001 -0.073486865 0.004660658
-0.0036884868 0.039465025 -0.0059220777 0.035972007 -0.016502224 -0.020317562 -0.010707821 0.060493343
-0.0003040697 0.07718678 0.009956233 0.011495838 -0.022738937 -0.057596218 0.018121991 -0.08485472
-0.03438896 0.0054366514 -0.04955604 0.024044756 0.08079324 0.045494325 0.040490784 -0.028942063
0.008913861 0.039801344 0.09459722 0.03638225 0.024808364 -0.008677943 -0.03189618 0.076128535
-0.05469068 0.016016483 0.036521196 0.040756688 -0.037817955 -0.031208817 -0.011567285 -0.0009559195
0.015836732 -0.035298467 -0.034271646 0.015434509 -0.041245762 0.03161481 -0.021043383 -0.033097386
-0.025685731 0.056591656 -0.036760487 0.084920526 -0.031842493 -0.0026863678 0.031067727 0.07096804
0.06135507 -0.0009429845 0.08886909 0.08874093 -0.06418612 0.034793958 -0.0054790536 -0.04646573
0.06707609 -0.052051593 -0.016252542 0.011376193 -0.04868565 0.04327031 0.02584434 0.0063030757
0.112016864 0.0065416447 0.083571285 -0.044601105 -0.029756527 0.04250872 -0.030901631 -0.071829006
0.009001178 0.056875862 -0.01922624 -0.07924128 0.06102677 -0.05456265 0.034896858 -0.018149188
0.048650697 0.00011675459 0.012555224 -0.029866613 0.026568774 0.053457707 -0.028999377 -0.012186526

fc3.weight f4 [4, 300]
00000000: 7550 07bf 0675 153d b917 0ebe df99 f9be
00000010: 379d 80be 1a75 bd3e 8973 b03e bb02 30be
00000020: 7cc6 12be e659 cf3e af5f 63be 3965 4cbe
00000030: 0b13 323f a364 0abd beb2 86be 0484 fe3e
00000040: 264d 09be 9924 45be bc07 7d3e 994f a03d
00000050: b296 b83e 5c83 a5bd d567 77bd c892 a1bb
00000060: 5667 c7be 3f55 0c3f 3eff bfbe 57ff dd3d
00000070: 6155 2c3f 0d1f 5dbe 192c 7cbe a9e6 9bbb
00000080: ca47 8ebd e06d 0dbf 5b09 8b3d 62e5 2d3f
00000090: 2f33 83bd 6d9e a7be 9b93 313e 74d0 f2be
000000a0: 8575 3cbe 6655 0dbe 96d6 50bd 3191 d43e
000000b0: 0429 cb3e 8faf 143d 666e 083f 1a18 22be
000000c0: 5ab0 22be a1f8 59bb 8812 aabe 8074 25be
000000d0: 5305 8fbd 344f 33bf c718 86be 3915 c6be
000000e0: fdbf f0bd 0a8a 073e d504 dcbe 7da8 1bbe
000000f0: 08f3 0cbe 1acb 57bd 06b2 01bb 2537 993d
00000100: ea8a 443a 1b93 a4bc b990 bfbd 8c14 9b3e
00000110: 37ea 86be 260d 02be 4cf9 65be dd39 45be
00000120: 7dfd 99be 067c a73e 6f9e 08be 4bfb 493e
00000130: 6b2d d93d 72dc d2be 5f3c 393f 087b 173f
00000140: 8bf1 70be 793b 4d3e 53cc f5bd 17f4 80be
00000150: f535 49be 4dc3 093e a72b 723e 7aa4 e93d
00000160: 5583 22bd c89e a03e 964b 13bf cce0 e8bd
00000170: 6df0 fbbd d957 72bf 4757 6dbe cc53 62be
00000180: c4a5 473f 688a cdbd f181 9ebe ca98 e33d
00000190: 03e8 65be 6445 eabe f8f7 113f 26eb a63e
000001a0: 6359 02be 23a2 a1bd 69e2 44be e039 89bd
000001b0: 0fa1 9d3c 606d abbb ed6c f0ba 8c13 2c3e
000001c0: 52ca 393e 8080 54be 1275 32be 5fad d4bd
000001d0: 62ae c53d e0e8 89be 0c40 ee3e c492 c63e
000001e0: 70a6 83be 5845 e4bd 5335 163f 9f4c 07be
000001f0: 3a93 efbc 7516 d83d a801 5d3d f1f3 26bd
00000200: 2f62 fb3d 57b9 fdbe 84cc 623e 549c fabd
00000210: d605 a73d 2181 1bbe 1d03 1ebe a872 f23d
00000220: dc2d f53e 7160 01be 6dd9 883c 66f4 293e
00000230: a3a6 4e3c 36f8 523f 9374 04be fd4c 97bb
00000240: 13a7 3c3f e5e5 863e 343d 6c3d 6a6a b63d
00000250: 9812 713d 4d3a 76bd 4e13 243c 1e3d 0abe
00000260: f4cd f23e 7bb6 aebd 16b9 b93d 123f 0dbf
00000270: 1a7a a93e 0cb8 87be acd8 8cbe 401f e5bd
00000280: cd9b 9bbe 0dca 3bbe 6d52 b73d 6f26 083f
00000290: 1181 703f 6e53 5abe 2b2c 19be d460 963e
000002a0: 1beb 6abe 190e a7bd 88bc 563c 768d 0fbd
000002b0: 14f3 973e f671 62be 9002 2cbe 62ae 523d
000002c0: fa87 81be a07f 1d3f 601e c53e ea4d 22be
000002d0: 0cbe 2b3e 055c 3e3f 0cef 4abe 0c21 d1bd
000002e0: 0f98 2fbe 1f8c 60bd e228 bb3e 9eb1 23be
000002f0: 3914 28be b4a5 26be 2df4 d239 ca3e 57be
00000300: cd86 6c3f e9a8 ca3e 1b2a 45be 416a 203e
00000310: 5c59 31be a475 52be 5b35 28bf b82c 22be
00000320: fabc 99be 3dc6 e43d 79fb b2be 50cd a7bd
00000330: 2472 fbbe bde8 e6be fdff 32be 28ea 83bd
00000340: 1c3e 74bd 9996 9c3e 2c55 213f efef d13e
00000350: bc85 933e 0d96 4cbc 7ff8 963d 6fa6 0e3d
00000360: 3555 69be b141 983d 5105 9b3e 5e99 983c
00000370: c745 32be 6f95 4dbb d11e 71be eb94 483c
00000380: 158f 203f d5aa cabe f16b d03d f073 133c
00000390: 3686 0fbe 17b6 6fbe ecfc 2dbf 28b2 16be
000003a0: c4ae 40bd 19b8 b23e 7120 2fbe 70b0 71be
000003b0: ca5e 1bbe 16e5 cf3e 117b c1bd 1c87 39be
000003c0: c197 6ebe 932e ccbd dbf2 e5bd 2324 203d
000003d0: 1f21 9abe 9f0a 2ebc f044 593d 9674 b4be
000003e0: 3474 3e3c 7dd7 8f3e 0652 38be 27fc 153f
000003f0: be92 0cbd 1a50 263e cef7 a93d 9a01 cf3d
-0.5285714 0.036488555 -0.13876237 -0.48750207 -0.25119945 0.37003404 0.34463146 -0.17188542
-0.14333528 0.40498275 -0.22204469 -0.19960488 0.6956031 -0.03378738 -0.26308244 0.49710095
-0.13408336 -0.19252242 0.24709982 0.07827682 0.3605247 -0.080816954 -0.060401756 -0.0049308278
-0.38946027 0.54817575 -0.37499422 0.10839718 0.6731778 -0.21593876 -0.24626197 -0.0047577214
-0.069472864 -0.5524578 0.06788894 0.67928135 -0.06406247 -0.32738057 0.17341463 -0.47424662
-0.18404205 -0.13802108 -0.050985895 0.41517022 0.3967973 0.03630024 0.53293455 -0.15829507
-0.15887585 -0.0033259767 -0.33217263 -0.16157722 -0.069834374 -0.7004273 -0.2619078 -0.38688067
-0.11755369 0.13236251 -0.42972437 -0.15200992 -0.13764584 -0.052683927 -0.0019789948 0.07481221
0.00074975064 -0.020089677 -0.093537755 0.30289114 -0.26350567 -0.12700328 -0.2245838 -0.19260354
-0.3007621 0.3271181 -0.13341688 0.19724767 0.10604366 -0.4118381 0.72357744 0.59172106
-0.23529641 0.20042218 -0.120018624 -0.25186226 -0.19649489 0.13453408 0.23649465 0.114083245
-0.03967603 0.3137114 -0.5753721 -0.113710016 -0.12301717 -0.94665295 -0.23177825 -0.22102278
0.77987313 -0.100361645 -0.30958512 0.111131266 -0.22451787 -0.45756066 0.57018995 0.3260128
-0.12729411 -0.07892253 -0.19226994 -0.06700492 0.019241838 -0.0052315444 -0.0018343009 0.16804332
0.18143585 -0.20752144 -0.17427471 -0.103846304 0.096524015 -0.26935482 0.4653324 0.38783848
-0.2571292 -0.11146039 0.58675116 -0.13212822 -0.029245008 0.10551158 0.053956658 -0.040759984
0.122745864 -0.49555466 0.22148329 -0.122368485 0.0815541 -0.15185978 -0.15430875 0.11838275
0.4788655 -0.12634446 0.01670524 0.16597137 0.0126129715 0.8240999 -0.12935095 -0.004617332
0.73692435 0.2634727 0.057675555 0.089070156 0.058855623 -0.060114194 0.010014368 -0.13499877
0.47422755 -0.08530899 0.090685055 -0.5517436 0.3310097 -0.26507604 -0.27509058 -0.11187601
-0.30392304 -0.18338795 0.08951268 0.53183645 0.9394694 -0.21320888 -0.14958255 0.2937075
-0.22941248 -0.08156986 0.013106473 -0.035047017 0.2967764 -0.22113785 -0.16797853 0.051435836
-0.25299054 0.61522865 0.38499737 -0.15850034 0.16771716 0.7435916 -0.19817752 -0.10211381
-0.1714785 -0.05482113 0.3655463 -0.15985724 -0.16413964 -0.16274148 0.00040236246 -0.21020046
0.9239319 0.39581993 -0.19254343 0.15665533 -0.17319244 -0.20552689 -0.65706414 -0.15837371
-0.3002699 0.111706235 -0.34957483 -0.08193457 -0.4911052 -0.4509944 -0.17480464 -0.06441146
-0.059629545 0.30583647 0.63020587 0.41003367 0.2881297 -0.012486947 0.073716156 0.034826692
-0.2278641 0.07434405 0.30277494 0.018627819 -0.1740943 -0.0031369587 -0.23546912 0.012242536
0.62718326 -0.3958346 0.10176838 0.00899981 -0.14016041 -0.23409306 -0.67964053 -0.14716399
-0.04704167 0.3490608 -0.17102219 -0.23602462 -0.15172878 0.40604466 -0.09447301 -0.18117946
-0.23300077 -0.09969821 -0.11227962 0.039096963 -0.30103394 -0.010622649 0.05304426 -0.35245198
0.011624385 0.28094092 -0.1800004 0.5858788 -0.03431963 0.16241494 0.08299218 0.10107727

fc3.bias f4 [4]
00000000: c1da 82bd e433 3f3d 45a6 963d 39a5 d13c
-0.0638938 0.046680346 0.07355932 0.02559148
