p2_continuous-control/checkpoint_critic.pth (torch, 544300 bytes, 5 tensors)

fcs1.weight f4 [400, 33]
000000 61 09 c4 be b1 5f 85 3e cb 3f 85 3e e9 6b 2d bc
       -0.38288406 0.2604957 0.26025233 -0.01058481
000010 42 06 19 3d b7 75 22 be 95 23 88 3e bb 7b 09 be
       0.037359484 -0.15865217 0.26589647 -0.13426106
000020 b8 8f 57 be 0b 24 d3 bd 5c 7f 5e bd 34 14 9a bb
       -0.21050918 -0.10309609 -0.054320678 -0.0047021154
000030 b0 f4 f9 3d a3 70 02 bd 99 fd b0 be 68 3d 8d 3e
       0.122048736 -0.0318457 -0.3456848 0.27585912
000040 cb 0d 74 bd 62 46 e1 bc 45 d8 a5 3c e4 6b 3a 3e
       -0.059583467 -0.027499381 0.020244727 0.1820522
000050 a2 47 15 3d 13 c2 42 3d 3e c6 c4 bd 19 0b 4e 3e
       0.036445267 0.047548365 -0.09608124 0.20121421
000060 7d 9c 46 be a1 90 59 bb a9 cf 2b 3e d6 dc 07 3f
       -0.19395633 -0.0033197778 0.16778435 0.53071344
000070 2e 7c b3 be 76 7f 9a 3c 6f f4 09 bf e4 87 79 3c
       -0.3505568 0.018859606 -0.538886 0.015230153
000080 93 08 a2 be 63 c3 90 3e 13 fc 36 3f c8 86 0d bf
       -0.31647167 0.28274068 0.71478385 -0.55283785
000090 64 4f 19 be 91 e2 3d 3e 5c a7 d4 3d ab 22 04 be
       -0.14971691 0.1854346 0.10383484 -0.1290385
0000a0 4e 56 91 bd cd 10 51 3f 2f af c9 bd 0e 8f 4d 3e
       -0.070965394 0.8166626 -0.09847867 0.20074102
0000b0 52 59 49 3d 55 c1 41 bd 51 77 c1 bd d5 ef 04 3d
       0.049157448 -0.047303516 -0.09446586 0.032455284
0000c0 74 ae 12 3f 65 b6 14 3e ec b5 11 3d 6d 09 e3 bc
       0.57297444 0.14522703 0.035573885 -0.027714456
0000d0 44 16 e4 bb fe c4 44 bc fc 37 ec bd 45 11 e1 bc
       -0.006960662 -0.012009857 -0.11534116 -0.027474055
0000e0 de 6c dc 3d 3f 21 52 3d 0b 41 e5 bc 0a 8b e1 3b
       0.10762952 0.051301237 -0.027985116 0.00688303
0000f0 16 8b 7a 3e b6 b7 da bd 50 bf b4 bc 62 c6 8b be
       0.2446712 -0.10679571 -0.022063881 -0.27299792
000100 d5 e6 40 3d 6f 18 04 3f 61 ec 21 3e 08 1a 53 3f
       0.04709514 0.5159978 0.15812828 0.82461596
000110 ee 65 aa be dd 71 80 be 2a 9e 01 3e d9 77 c5 bd
       -0.3328089 -0.2508687 0.12657991 -0.09642
000120 52 ba e8 bd c2 18 2d 3e 75 a7 3f 3f 04 eb 46 be
       -0.11363663 0.16903976 0.74864894 -0.19425589
000130 82 b6 02 3e eb 0f 3b 3e 77 4e 0e be 43 6b 6a 3e
       0.12764934 0.18267791 -0.1389712 0.2289248
000140 03 8b 2b 3d a0 83 c6 3c fb 1f b5 be 2f 20 c9 be
       0.04188062 0.024232686 -0.35375962 -0.39282367
000150 47 4f 01 3e eb 5a 0c be a4 dd 9b 3d 7a 77 45 3d
       0.12627898 -0.13706557 0.07610634 0.048209645
000160 ed c5 82 bc c3 55 7c 3e 55 4b 1a 3e 25 82 11 bd
       -0.015963519 0.2464209 0.150678 -0.035524506
000170 08 b4 fb be 9b b1 87 3f 59 13 61 be e8 34 23 3c
       -0.4916079 1.0601076 -0.21980037 0.009961344
000180 9c 4c 82 bf 30 62 14 bd 47 dd f7 3e cd 9e 0d 3e
       -1.0179629 -0.03622645 0.4841101 0.13830109
000190 bb dd 2f 3f 1e c6 9c 3d 53 06 9b be 02 0d 70 bd
       0.6869771 0.07654975 -0.30278262 -0.058606155
0001a0 00 c9 21 3e 60 f0 cb 3b 0e 22 84 3e f3 1a 36 3e
       0.15799332 0.0062237233 0.25807232 0.17783718
0001b0 34 5e 10 be 3c c3 b8 bc e9 0c 99 3e 2b 57 17 be
       -0.14098436 -0.022554033 0.29892662 -0.14779346
0001c0 70 0c f5 bd 33 d9 11 bd 36 04 58 3e 58 3f 89 be
       -0.11965263 -0.035607528 0.21095356 -0.2680614
0001d0 95 a1 cb 3b f1 99 14 be 9f e3 6a 3e 24 cc 28 bd
       0.0062143304 -0.14511849 0.22938393 -0.04121031
0001e0 1d c8 69 be 8f 20 a1 3c 72 32 1c bd 33 80 56 3e
       -0.22830243 0.019668845 -0.038134046 0.20947342
0001f0 da 74 bc 3d 30 34 43 be 53 39 69 3f 84 d5 74 bd
       0.09201975 -0.19062877 0.91103095 -0.059773937
000200 34 02 8a bc 7d e4 57 bf 98 6c 40 bc 36 44 c9 3f
       -0.016846754 -0.8433302 -0.011744641 1.5723941
000210 97 f8 ab be c3 f4 69 3d d1 92 95 be 12 a7 ae bd
       -0.33588096 0.05711819 -0.29213575 -0.0852796
000220 e5 76 13 be a5 06 44 be da 9e d3 3d ec 67 c4 3b
       -0.14400823 -0.1914316 0.10333033 0.0059938338
000230 04 54 50 3e 25 d0 ec bc e3 e0 10 3e 52 f0 9f bb
       0.2034455 -0.028907845 0.14148287 -0.0048809433
000240 2e 6a ba 3d d4 da df 3e 50 bb 76 bc a0 4f 24 3e
       0.091022834 0.4372164 -0.015059307 0.16046
000250 aa 15 e0 bd 40 a0 cc 3c ea 46 a1 bc d5 8c 60 3d
       -0.10941632 0.024978757 -0.019687135 0.054821808
000260 79 18 1b 3b 6d 89 ee bc 13 aa 7e 3d ad 7a a3 3e
       0.002366571 -0.029118264 0.062173914 0.31929532
000270 bb 43 8d 3c f2 9e 8c 3d 3b d1 d3 3d fe 00 9e 3e
       0.01724421 0.06866254 0.10342642 0.30860132
000280 ac 33 a6 3e ac ad 0f 3c 0f f8 b1 be 6c 52 8c bc
       0.32461298 0.008769434 -0.34759566 -0.017129146
000290 63 80 36 3f fd dc 83 be 40 81 f2 be 7c 4e bc be
       0.7128965 -0.25754538 -0.47364235 -0.3677863
0002a0 d5 ad 51 3d 23 ac 14 be 66 14 19 be 3a af 02 bf
       0.05119117 -0.1451879 -0.14949188 -0.51048625
0002b0 d2 89 2c 3c bd f2 b4 3b 15 28 85 be eb c2 0d 3e
       0.010530906 0.0055221007 -0.26007143 0.13843887
0002c0 24 79 cc 3d 6b 10 15 be e9 1b 8e 3e 0f c0 07 3f
       0.09984043 -0.14557044 0.2775567 0.53027433
0002d0 d7 87 27 bb f3 2d 85 bd 21 4e 2e bd 8d 45 18 bc
       -0.0025563145 -0.06502905 -0.04255498 -0.009293926
0002e0 5d d6 41 bc b8 aa 24 3d e4 11 83 3d a6 38 2a bd
       -0.011830893 0.040201873 0.06399897 -0.04155793
0002f0 11 a9 dd 3d 3d cc be 3d f1 76 56 bd a5 af 8d 3e
       0.108232625 0.09316299 -0.052359525 0.2767307
000300 f4 28 0d 3f af 98 09 bd fd 04 1d 3d 9f 52 04 bf
       0.55140615 -0.033592876 0.038334835 -0.5168857
000310 fd 75 0c 3d 54 30 11 3f 31 75 5e be 1e 4d ec be
       0.03429221 0.5671437 -0.21724392 -0.46152586
000320 9e 6c 95 3e ac 46 22 be e6 2c 18 bd 05 41 23 be
       0.2918443 -0.15847272 -0.037152193 -0.15942772
000330 cc c6 19 be 88 9c ac bd 3a ed a1 be cf e4 ad 3c
       -0.15017241 -0.084282935 -0.31626302 0.021227269
000340 06 69 3f 3d b7 d7 6f bd 77 8f 7d bd e6 27 87 3e
       0.046731018 -0.05855533 -0.061904397 0.26397628
000350 6f c5 55 3e 8d 37 a6 be 94 c1 9b 3d dd c2 b4 ba
       0.20876096 -0.32464257 0.076052815 -0.0013790984
000360 f7 19 75 3d e3 12 87 3c ee 13 ad 3c 82 15 de 38
       0.059839215 0.016488498 0.021127667 0.00010589791
000370 9b 73 37 3d a7 8f 86 3d 62 b8 b4 3d b0 b6 42 3b
       0.044787984 0.06570368 0.08824231 0.002971094
000380 59 23 c4 bd 35 f0 1b 3f d0 13 c9 3e 64 d1 72 3c
       -0.095770545 0.609134 0.39272928 0.01482043
000390 f5 d4 09 bf e7 cc df bc 2f b7 02 c0 af 72 32 be
       -0.5384057 -0.027319385 -2.0424306 -0.17426561
0003a0 fc e9 b0 be 32 ed 5d 3e 84 28 a4 3d 67 0e a5 bd
       -0.34553516 0.21672514 0.0801554 -0.08059388
0003b0 c7 13 7c bd c3 1a 24 3e 51 b5 9f 3d 4b 28 26 bd
       -0.0615423 0.16025834 0.07798255 -0.04056577
0003c0 b1 33 14 be 23 47 61 3c 2e 72 05 3d 54 ca 33 3b
       -0.14472844 0.0137498705 0.032579593 0.002743383
0003d0 b1 63 91 3e 31 00 d8 3d ea 1c 1c be 70 d7 b3 bd
       0.2839637 0.105469115 -0.15245405 -0.08781326
0003e0 4c 89 28 bd 96 03 4c bd 32 77 21 3d 91 8a c0 bc
       -0.04114656 -0.049808107 0.039420314 -0.023503574
0003f0 fe a4 e4 3c c6 c9 88 3c 74 6b 3a 3e af 46 22 bd
       0.027910706 0.016697776 0.18205053 -0.03961819

fcs1.bias f4 [400]
000000 f2 ae 15 bf ae 3a a8 be 19 8c 60 bf 1e ab 5c bf
       -0.5847007 -0.3285727 -0.8771377 -0.86198604
000010 e0 6e f8 be 0e 90 2a bf 01 e8 35 bf c2 dd eb 3e
       -0.4852209 -0.6662606 -0.71057135 0.46067625
000020 24 d5 99 bf 22 67 45 bf 6c 69 2c bf 22 36 9a bf
       -1.201817 -0.77110493 -0.6734836 -1.204777
000030 4a 72 4f bd b5 f1 9f bf 2a 00 26 bf 1a 98 6b be
       -0.050646104 -1.2495638 -0.64844 -0.23007241
000040 57 c9 64 bf 62 15 56 bf 33 69 43 bf 0c e9 2c bf
       -0.8936972 -0.8362638 -0.76332396 -0.675431
000050 87 08 86 bf 8f 5f 2d bf 8e f6 86 bf 81 5f 65 bf
       -1.0471352 -0.67723936 -1.0543993 -0.8959885
000060 ac 0c a2 bf 03 c2 5d bf 33 0f 88 bf 54 7e 42 bf
       -1.2660117 -0.86624163 -1.0629638 -0.7597401
000070 65 0d 55 bf 3d 70 2b bf 4d 9e 18 bf 22 47 df be
       -0.83223563 -0.6696814 -0.5961655 -0.43608958
000080 5d c3 31 3f 77 a5 bf bf 76 3d f7 be 7f 0b a3 bf
       0.69438726 -1.4972371 -0.48289078 -1.2737883
000090 d9 f3 81 bf d6 5c 51 bf 6f 8e c5 bd 23 12 b4 be
       -1.0152541 -0.8178228 -0.09646308 -0.35170087
0000a0 02 1c 8a bf 24 9d 50 be a2 95 f6 be f2 7b 4e bf
       -1.0789797 -0.20372444 -0.48161036 -0.80657876
0000b0 b8 6a 7f bf 35 df 34 bf ae 95 8c bd 9f 80 43 bf
       -0.99772215 -0.70653087 -0.06864487 -0.76368135
0000c0 12 34 46 bf 66 d0 15 bf d5 5c 4a bf f9 99 7c bf
       -0.77423203 -0.58521116 -0.790479 -0.98672444
0000d0 51 be 53 bf a4 9c 5a bf df 8f 58 bf ef 58 3f bf
       -0.82712275 -0.85395265 -0.8459453 -0.74745077
0000e0 92 21 8f bf 47 52 7f bf 75 15 70 be bb a9 4f bf
       -1.118212 -0.9973492 -0.23445685 -0.81118363
0000f0 85 c7 64 bf 7a a1 1c bf 21 ea 64 bf 24 d0 21 bf
       -0.8936694 -0.61183894 -0.8941975 -0.6320822
000100 e0 1c ba bf 1f 58 b9 be c4 09 8f be 98 df 64 bf
       -1.4540062 -0.36200044 -0.27937138 -0.89403677
000110 ac 76 72 be 2c bc 53 bf f6 ce 23 bf 82 72 40 bf
       -0.23678082 -0.82709 -0.6398767 -0.75174725
000120 e1 15 50 bf e5 95 7b bf ab 26 3c bf 86 86 85 bf
       -0.81283385 -0.98275596 -0.734965 -1.0431678
000130 c1 5a 89 bf 01 4d 80 bf e6 ee 5c bf d7 f1 1e bf
       -1.0730821 -1.00235 -0.8630203 -0.6208777
000140 99 a7 85 bf b3 5c 37 bf 90 12 59 bf 56 f5 4e bf
       -1.0441772 -0.7162582 -0.8479395 -0.808431
000150 3f af 29 bf fd e5 9b bf a9 fc 74 bf 0a d1 30 bf
       -0.6628303 -1.2179562 -0.9569803 -0.6906897
000160 f2 84 28 bf 13 73 27 bf 5e 1c 5d bf 1c b2 37 bf
       -0.6582786 -0.65409964 -0.8637141 -0.7175615
000170 2b 6b 91 bf 4c 2a 8e bf a1 58 77 bd de 02 74 bf
       -1.136083 -1.1106658 -0.060387257 -0.95316875
000180 22 24 0b bf f4 ec 19 bf 52 e7 96 bf 9e b9 8f bf
       -0.5435201 -0.60127187 -1.1789343 -1.1228521
000190 32 64 cb be d4 74 ad be 7d f1 ca be 7f 82 11 bf
       -0.3972488 -0.33878195 -0.39637366 -0.56839746
0001a0 29 2f 98 bf 59 a7 01 bf 8e bd 77 bf b7 b0 ac be
       -1.1889392 -0.5064598 -0.9677361 -0.33728573
0001b0 6f d4 57 bf 7c 52 53 bf 53 24 84 bf 90 d8 89 be
       -0.8430852 -0.82547736 -1.0323585 -0.26923037
0001c0 61 64 9c be fe 64 3e bf 9b 03 35 bf b8 5a 76 bf
       -0.30545333 -0.7437285 -0.70708627 -0.96232176
0001d0 3e 14 0a bf c4 5c 6c be 64 3d 33 bf fc f7 36 bf
       -0.5393714 -0.23082262 -0.7001555 -0.71472144
0001e0 2a 40 e9 be b1 1c 8a bf 69 f8 89 bf ea 9d b9 be
       -0.45556766 -1.0790006 -1.0778934 -0.3625329
0001f0 f6 09 12 bf 9e 46 18 bf 87 59 7d bf 99 2b 64 be
       -0.5704645 -0.59482753 -0.9896473 -0.22282256
000200 e7 84 80 bf 6d d7 3b bf 7d 63 b8 be 6b 98 0d bf
       -1.0040559 -0.7337559 -0.36013404 -0.55310696
000210 6d aa 1f bf 7b d7 75 bf 52 a0 7f bf bd a2 48 bf
       -0.62369424 -0.9603192 -0.99854004 -0.7837332
000220 32 cf 79 be 65 1d 3d 3e ef c0 2f bf 03 b0 2c bf
       -0.24395445 0.18468244 -0.6865377 -0.6745607
000230 13 4a 39 bf 56 f4 0a bf b5 59 07 bf 33 53 d4 be
       -0.72378653 -0.5427908 -0.5287126 -0.41469726
000240 60 fc 8a bf ce 50 c7 be 75 47 23 bf db b4 00 bf
       -1.0858269 -0.38928837 -0.6378091 -0.50275964
000250 b8 1b 55 bf 2c 3d 0b bf bf 0c 9b bf fb 73 ec be
       -0.8324542 -0.54390216 -1.2113265 -0.46182236
000260 1c 6b 3c bf 29 d9 62 bf 8e 7a 70 bf cf 0d 40 bf
       -0.73600936 -0.8861261 -0.93937004 -0.7502107
000270 7e c5 1e bf 80 90 80 3d 5c d4 ea be a9 7d 25 bf
       -0.620201 0.06277561 -0.45865142 -0.6464487
000280 21 c8 cd 3e ba 6b 3a bf 7b ae 1c bf 0f a3 80 bf
       0.4019175 -0.7282063 -0.61203736 -1.0049762
000290 0c a1 4b bf 9d c2 45 bf 08 0d 2d bf 18 0f be 3d
       -0.79542613 -0.7725008 -0.6759801 0.09280223
0002a0 e4 93 1a bf 92 62 70 bf 0d 9c 6c bf 6d 51 d3 be
       -0.60381913 -0.93900406 -0.92425615 -0.4127306
0002b0 84 7e 49 bf 88 bb ad be cd 22 30 bf cd 7c 6b bf
       -0.7870867 -0.33932137 -0.688031 -0.91987306
0002c0 13 44 bb bf 1e 1c f4 3e 90 bf 01 bf df 18 db be
       -1.463015 0.47677702 -0.50682926 -0.42792413
0002d0 77 2e 4d 3d dc d5 5a bf 2d 8b b3 bf 99 47 1b bf
       0.05009314 -0.85482574 -1.4026848 -0.60656124
0002e0 56 4a 2f bf 4d 2a 37 bf 29 16 7d bf 54 e2 1a bf
       -0.684728 -0.7154892 -0.9886194 -0.605016
0002f0 36 e9 30 bf ce 25 3b bf aa 2a 36 be c9 b9 49 bf
       -0.6910585 -0.7310456 -0.17789713 -0.7879911
000300 91 18 c6 be fe e9 2f bf ba a2 50 be 91 61 cf be
       -0.38690618 -0.6871642 -0.20374575 -0.40504125
000310 2a 45 57 bf 13 97 c9 be e4 9f 73 bf 85 b8 77 bf
       -0.8408991 -0.39373073 -0.9516585 -0.9676593
000320 dd 77 91 bf f2 56 4c bf fa 6a 3a bf d1 38 10 bf
       -1.1364704 -0.7982017 -0.72819483 -0.56336695
000330 a7 41 65 bf a3 19 81 bf 45 aa 15 bf 97 bf 80 bf
       -0.895533 -1.0085949 -0.58462936 -1.0058469
000340 a1 67 3a bf 48 0c 51 bf 6d 77 07 bf ce 2b 7f bf
       -0.72814375 -0.81659365 -0.52916604 -0.99676216
000350 42 c5 29 bf c9 50 47 bf 4d 95 3d be 5b 96 3e bf
       -0.66316617 -0.77857643 -0.18513985 -0.74448174
000360 5d 28 6c bf 87 ad 6f bf b4 40 17 bf c7 18 55 be
       -0.9224909 -0.93624157 -0.59083104 -0.20810233
000370 d6 cc ab bf b1 0a 45 bf 72 c3 a9 be 1d a4 6b bf
       -1.3421886 -0.7696944 -0.33156925 -0.9204729
000380 81 fa bf be 9f 7c 29 bf c3 a3 56 bf c8 4c 62 bf
       -0.37495807 -0.6620578 -0.8384363 -0.8839841
000390 d1 39 57 bf d3 02 1c bf 21 8d 48 bf 65 0f c5 be
       -0.84072596 -0.6094181 -0.78340346 -0.38488308
0003a0 9d 61 13 bf 65 09 9e bf 44 28 53 bf 29 f2 10 bf
       -0.5757082 -1.2346617 -0.82483315 -0.5661951
0003b0 83 d3 94 bf 76 dd 70 bf 17 ea 7a bf b2 01 20 bf
       -1.1627048 -0.9408792 -0.9801344 -0.62502587
0003c0 4b 4e 37 bf 34 36 28 bf 0c ca f4 bd ef d2 8e be
       -0.7160384 -0.6570771 -0.119526 -0.27895305
0003d0 f3 8f 22 bf e2 39 af be ab 0e 62 bf af d3 6c bf
       -0.635009 -0.3422385 -0.8830363 -0.92510504
0003e0 c8 17 31 bf f1 b1 00 bf df da a7 be 69 1c 84 bf
       -0.6917691 -0.5027152 -0.32784173 -1.032117
0003f0 ad ef 96 be 9e 84 6d bf 22 b8 ba be 32 8c 8f bf
       -0.29479733 -0.9278048 -0.36468607 -1.1214659

fc2.weight f4 [300, 404]
000000 3b ae 82 bd 65 f6 05 be c5 d2 91 bd 55 ff 8a bd
       -0.06380888 -0.13082273 -0.07120279 -0.06786982
000010 78 e3 9f bd 6d 36 54 bc b0 25 ce bb e5 d6 6f be
       -0.07807058 -0.012952429 -0.006291114 -0.2342182
000020 9c f6 38 3d 92 d3 04 be 82 47 77 3c b1 79 80 bd
       0.04515706 -0.12971333 0.015092732 -0.06273211
000030 78 a1 1f 3c ab 17 d1 bc f7 45 9e be f0 ae 10 be
       0.009743087 -0.025523981 -0.30912754 -0.14129233
000040 a8 04 19 3d 87 7f 7c bc 95 dc 14 be 09 e4 fe bc
       0.037357956 -0.015411264 -0.1453727 -0.031114595
000050 d6 35 88 ba 09 cc 4d bd 55 17 9f bd 87 4d c6 bd
       -0.0010392021 -0.05024341 -0.07768122 -0.09682756
000060 c1 74 20 3e 00 df 29 bd 0b 66 81 3d ab 9e b5 bd
       0.15669538 -0.041472435 0.06318291 -0.08868154
000070 aa 24 c6 bd 6b 0d 07 be 34 4a a2 bc 19 b7 57 3c
       -0.09674962 -0.13188712 -0.019810773 0.0131662125
000080 2d 2d 47 be 0f 15 e0 3c e1 fe 0b 3e 04 34 db 3c
       -0.19450827 0.027353792 0.13671447 0.026758201
000090 7b 9a fc bd cb a2 ef bc 0a 76 98 be 50 03 e9 bd
       -0.12334152 -0.02925243 -0.29777557 -0.11377585
0000a0 fd 22 a8 3c af 5e 92 be f0 54 30 3d 39 23 61 3d
       0.020524496 -0.28587863 0.043049753 0.05496523
0000b0 37 76 cb bd cb 73 9b 3d 04 99 1b 3d c1 31 a2 bc
       -0.09934657 0.07590445 0.037987724 -0.019799115
0000c0 43 4b 38 bb 22 e2 53 bd e7 c7 46 bd 0a 25 55 bd
       -0.0028121031 -0.05172933 -0.048530485 -0.052037276
0000d0 e3 66 85 b9 25 47 bd b9 e0 58 31 be a5 c9 00 be
       -0.00025444393 -0.00036101896 -0.1731906 -0.12576921
0000e0 d7 f1 fd 3a 8a 65 61 3d 9f 73 67 be ce 5a 34 3d
       0.0019374442 0.055028476 -0.226027 0.04403191
0000f0 51 0a fa 3c 2e 9f 04 be 09 00 43 be 92 1b 7d be
       0.030522497 -0.12951347 -0.19042982 -0.24717548
000100 16 41 05 bd bd 1b ee 3d c5 82 19 be cc 09 74 3d
       -0.032532774 0.116263844 -0.14991291 0.059579656
000110 71 34 1e bd 1e 66 a7 3d 24 82 20 be 5c 59 68 be
       -0.03862423 0.08173774 -0.15674645 -0.22690338
000120 04 f6 0f 3c 3f 71 50 bd 22 26 8f bc 57 01 12 bd
       0.008786682 -0.05088925 -0.017474238 -0.03564581
000130 33 4c 23 be 24 7e 9c bd b4 1a 08 3d b5 28 9e bd
       -0.15947036 -0.07641247 0.03322859 -0.07722608
000140 0b ef 29 bd bf 70 1a 3d c2 70 55 be 90 07 aa bd
       -0.041487735 0.03770518 -0.20843795 -0.08302224
000150 5a 60 9b bd db 78 2d bd 15 6a 48 bd b7 36 07 be
       -0.07586737 -0.042351585 -0.048929293 -0.13204466
000160 50 72 b4 3c 2e f3 07 3d ad 4e b6 3b 7e 9d 24 3d
       0.022027165 0.0331909 0.005563578 0.04018926
000170 c9 32 9d bc 92 46 d7 bd 4c 78 5a be 0c 01 04 be
       -0.019189255 -0.10511507 -0.21334952 -0.12891024
000180 ab 56 a2 bd 2f 9a a6 bd f3 57 f5 bd 08 b9 3b 3c
       -0.07926687 -0.08134877 -0.119796656 0.011457689
000190 53 7b 3b 3d bd 8d 46 bd b2 d2 6e bc c7 fa 8d bd
       0.045771908 -0.048475016 -0.014576601 -0.069325976
0001a0 c2 f1 7c bc e8 7b 90 bd d3 37 3e 3d a9 ac ab be
       -0.015438499 -0.07054883 0.046439957 -0.33530167
0001b0 f7 d8 14 bd 46 9f 01 3d 79 e7 97 3d d2 f5 e0 bd
       -0.036339726 0.031646036 0.07417197 -0.109843865
0001c0 54 42 de 3d d1 e3 46 be 0d 1a d2 bd a3 9b 79 bc
       0.10852495 -0.19422843 -0.10258875 -0.015234861
0001d0 7b 4a 57 3c df 7f 13 be 3d 14 8b be 7b d8 ef bb
       0.013140316 -0.14404248 -0.27163878 -0.0073195077
0001e0 e5 40 4b be 97 ca de bd 97 ab ce bd 56 a8 59 be
       -0.19848974 -0.10878485 -0.10091322 -0.21255621
0001f0 61 82 0f 3e 90 f3 46 3d 11 42 f2 bd 82 a6 5d be
       0.1401458 0.048572123 -0.118290074 -0.21645549
000200 a5 f8 4d 3d 21 b2 0c bd 7f c3 9d bd 79 18 46 be
       0.050285954 -0.034349564 -0.077033035 -0.19345273
000210 3f 13 9f bd 16 61 4a bd f5 90 81 bd 72 43 ae 3d
       -0.07767343 -0.049408995 -0.063264765 0.08508958
000220 2b db 61 3c 35 61 6b 3d 6b a8 a3 bc 83 d7 f1 3d
       0.013785164 0.05746575 -0.019977769 0.11808684
000230 51 ba c1 bd ba e1 89 3e 55 f5 8f bd 51 74 2d be
       -0.09459365 0.26930028 -0.07029215 -0.16938902
000240 9b dc a3 3c f8 d5 a6 bc 09 e7 34 be de 66 a4 3c
       0.020002654 -0.0203657 -0.17666258 0.020068582
000250 28 51 1d bd 5f 3c 34 be 9f d4 e1 3c 42 e8 68 be
       -0.038407475 -0.17601155 0.027567206 -0.2274485
000260 96 7c a8 be 21 8b 2d bd 26 cd 1e bd 4b be 1b bc
       -0.32907552 -0.04236901 -0.038769864 -0.009505819
000270 b6 84 75 3d cd 6d d3 be a0 83 4d be 88 70 24 bd
       0.059941016 -0.4129471 -0.20069742 -0.04014638
000280 ab 76 23 be 00 1d 5e bd f5 06 03 bd 4d c0 ed bc
       -0.15963237 -0.054226875 -0.031989057 -0.02902236
000290 ff 35 a1 bd 00 eb 5a 3d 37 fd 48 bd 64 4c 75 be
       -0.07871627 0.05344677 -0.04906961 -0.23954922
0002a0 cc 8f 45 bd ed aa 22 bd 54 e1 23 bd 8d 08 cb bd
       -0.04823284 -0.03971379 -0.04000981 -0.0991374
0002b0 01 eb 46 be cb 1a a9 bd 49 81 92 be 10 f4 8a 3c
       -0.19425584 -0.082570635 -0.28614262 0.016962081
0002c0 ab 1e f8 3c d3 27 a9 3d bf 70 8c be fc 3a e0 bd
       0.030288061 0.08259549 -0.27429768 -0.109487504
0002d0 70 71 49 be be e7 2c 3d 80 bd b5 3b 26 0a 50 be
       -0.19672179 0.042213194 0.005546272 -0.20316371
0002e0 e2 e5 cf bc 1e 59 9b bb 0b 8c 1a bd 95 7f 9b bd
       -0.025378171 -0.004740848 -0.03773121 -0.07592694
0002f0 58 33 f5 bd 9d 4c 84 bd 30 2d 70 bc 86 66 3a 3c
       -0.11972684 -0.06459925 -0.014659211 0.011376983
000300 45 d7 27 3d a1 bc fc b8 05 62 2b bc 9b 5d cd bc
       0.04097678 -0.00012051431 -0.010460381 -0.025069049
000310 cd 89 fd bd d9 a5 2d bc 15 7c 5f 3d a5 7c d1 3d
       -0.12379799 -0.010598623 0.054561693 0.10228852
000320 7d b5 23 bd 04 a2 4a bb ad 67 60 bd a1 c1 1b 3c
       -0.039968003 -0.0030919323 -0.054786373 0.009506614
000330 cd b2 77 bd d9 f5 9c bd 32 d1 c1 bd d5 45 93 bd
       -0.060473252 -0.07664079 -0.09463729 -0.07191054
000340 78 bb 63 3d c0 6b 98 3c 7a 68 3f 3e b9 ca 08 bd
       0.055598706 0.018606067 0.18692198 -0.033396456
000350 05 c5 9b bd 34 be 21 bf 3d 44 3b bd dd ed 6f 3d
       -0.07605938 -0.6318085 -0.045719374 0.058576453
000360 6c a9 9b bd e7 35 eb 3d 18 0b ea be 63 ad b2 3d
       -0.07600674 0.114848904 -0.4571159 0.08724477
000370 7b 34 1e 3d 0d 30 64 be 6c f7 12 be 6c b2 26 be
       0.038624268 -0.22283955 -0.14352196 -0.16279
000380 5d 5c b0 bd 73 bc 0b be 6e ad 43 bc 3b eb 8b 3c
       -0.08611367 -0.13646106 -0.011943204 0.01707994
000390 ab 73 37 be 19 b4 b9 bd 73 89 c6 bd 34 42 d9 bd
       -0.17915218 -0.09067554 -0.09694185 -0.1060833
0003a0 cc cb b9 bd 19 9b be bd 85 63 c8 3b 45 c9 29 3b
       -0.09072074 -0.09306926 0.0061153793 0.002590732
0003b0 3f 65 35 3d f4 cd 39 bd f9 d1 d8 3c f8 c9 6d bd
       0.04428601 -0.045362428 0.02646731 -0.05805394
0003c0 9e e3 b0 bd 23 79 84 bd 8d d5 8b 3d fe 3a b9 bd
       -0.086371645 -0.064684175 0.06827841 -0.09044455
0003d0 95 f7 ae be 22 bc 0e be 1d c7 c8 bd 61 28 fb bd
       -0.34173265 -0.13938954 -0.09803603 -0.12263561
0003e0 0f 1e a9 3d 01 75 84 be 95 36 ad bd 54 32 8e bd
       0.08257686 -0.25870517 -0.08457676 -0.06943193
0003f0 1e db 10 be e9 89 b2 bd f3 b5 51 be 92 c1 5a bd
       -0.14146087 -0.087177105 -0.20479564 -0.05340726

fc2.bias f4 [300]
000000 25 8d 3e bd b4 de 68 bd 59 7d ac bd 18 a9 3e 3f
       -0.046521325 -0.05685301 -0.08422346 0.74476767
000010 51 20 8b bd 03 b2 4a bc 29 f8 f9 be 4c 39 a4 bd
       -0.06793273 -0.012371543 -0.48822144 -0.08018741
000020 d0 90 ca bc 7e 48 33 3f 60 24 d9 3c e5 4f 6a 3e
       -0.024727255 0.7003249 0.026506603 0.2288204
000030 ff 9d 52 bd 4c 73 78 3f b8 15 2c bd 99 81 a4 bd
       -0.051420208 0.9705093 -0.0420129 -0.08032531
000040 b9 f6 00 3f f2 82 9b bd 3f 29 a7 bd 59 30 93 bd
       0.5037647 -0.07593335 -0.08162164 -0.07186956
000050 d9 4b 24 bb fb 52 b2 bd 2c 44 2b bd 06 5c e1 3e
       -0.0025069623 -0.087072335 -0.04181306 0.4401552
000060 02 f9 8a bd c5 12 6c bd df 57 e2 bd 14 d8 7c bd
       -0.06785776 -0.057635088 -0.11051916 -0.061729506
000070 9a ae 99 bc 95 43 06 bd 8d b6 00 3f bd 0e 74 bd
       -0.018760014 -0.032779295 0.5027855 -0.059584368
000080 82 cb 85 bd 31 d9 61 3f ab c3 3b bd 58 8f a5 bd
       -0.06532957 0.8822203 -0.0458409 -0.08083981
000090 5f 3c 82 bd c8 07 62 bd 3c ae 75 bd c9 12 ac bd
       -0.06359171 -0.055183202 -0.059980616 -0.084020205
0000a0 ec b4 ce bd 65 f2 75 bd 81 4e 6f bd ef c5 2d bd
       -0.10093102 -0.06004562 -0.058424477 -0.042425092
0000b0 24 50 b5 bd 9a c0 b2 bd 56 d6 c0 bd e6 5c 05 3f
       -0.08853176 -0.08728142 -0.09415881 0.52094877
0000c0 f6 de fc 3a 5d 28 07 be 56 3f 01 bd 9e da 8a bd
       0.0019292522 -0.13198991 -0.031554542 -0.06779979
0000d0 2e 61 5e bd 81 ab bb bc 2c 3f 81 bd 25 00 52 3f
       -0.054291897 -0.022908928 -0.06310877 0.8203147
0000e0 e8 9e 0c bd d0 95 b2 3f ce 1d b1 3e c8 ca 93 3c
       -0.034331232 1.3951969 0.34593052 0.01804103
0000f0 1c 47 9e bc f6 50 d6 be 22 8a aa bd aa 07 5d bd
       -0.019321017 -0.41858643 -0.08327128 -0.053962387
000100 3c 84 09 3f ea 05 08 bc 8d 9f 57 bd ba 0b c3 bd
       0.537174 -0.008302191 -0.052642394 -0.09523721
000110 37 b3 05 3f 60 65 39 bd 75 18 d7 bd 69 06 9a bd
       0.52226585 -0.045262694 -0.10502712 -0.07520754
000120 cb f8 ca be 08 1f 07 bc 20 31 b5 bd 51 6e 80 bd
       -0.3964294 -0.0082471445 -0.088472605 -0.06271041
000130 da 65 35 3f 3c 4f df bd 6a 46 c4 bc 9e 5a ae bc
       0.7085854 -0.10903785 -0.023959357 -0.021283444
000140 62 3f e0 bc 39 9e e7 bb 78 1c 0e bd c1 8b 82 bc
       -0.027373973 -0.007068422 -0.03469512 -0.01593578
000150 ef ab 90 bd 63 ed bc bd 33 27 97 bd f6 13 85 bc
       -0.07064044 -0.092249654 -0.073805235 -0.01624487
000160 b7 63 61 3e 19 58 8d bd 60 57 93 bd e8 ce 35 bd
       0.22010694 -0.06901569 -0.071944 -0.044386774
000170 78 45 09 3f 6e 9f bc bd aa 6a 71 bd c0 a8 a1 bd
       0.53621626 -0.09210096 -0.058939613 -0.07893515
000180 50 f3 25 bc e0 34 73 bd ab fd a3 bd 91 32 0b 3f
       -0.010128811 -0.059376597 -0.08007368 0.54374033
000190 fe 64 ab 3e 93 d3 6a bc bc 58 0a bd cb b0 78 bd
       0.33475488 -0.01433267 -0.03377603 -0.060715478
0001a0 7a b1 81 3b fb 62 a3 be e6 56 79 bd 4a 45 d0 bd
       0.0039579244 -0.31911454 -0.06087389 -0.10169466
0001b0 c2 05 f9 bc f8 9b 19 bd 42 f4 23 3d 2b 59 1d bb
       -0.030398253 -0.03750226 0.040027864 -0.0024009447
0001c0 5b 79 d9 bd 1a d4 b6 bd 9e cf 9c bc 9c af 8c bd
       -0.1061885 -0.08927174 -0.019141968 -0.06869432
0001d0 5d e6 de bd 7b d6 9f bc 97 77 f8 3a 07 f4 58 bc
       -0.10883782 -0.019511452 0.0018956539 -0.013241774
0001e0 7a 8c 51 bd ff a9 26 bd 98 2d 05 bd 7a cd 10 bd
       -0.05115936 -0.040689465 -0.032514185 -0.035352208
0001f0 9b 8a 33 bd ee d7 26 bc 93 6d 87 bd 6a 0a 6e bd
       -0.043833356 -0.010183318 -0.066126965 -0.0581154
000200 c3 9c c1 bc ff 7e af bd 20 07 ae bd aa 5a c4 bc
       -0.02363432 -0.085691445 -0.08497453 -0.023969013
000210 12 e7 13 bd 45 68 21 3f 5f 86 8a bd 5c 66 08 bd
       -0.036109038 0.6304973 -0.067639105 -0.033300743
000220 93 e3 10 3e e8 a2 bc bd 15 36 14 3f ab f2 b7 3e
       0.14149313 -0.092107594 0.5789502 0.35927328
000230 03 69 e8 bd ab 6a 01 bd 8b ed ff bd 1c dd b8 3e
       -0.113481544 -0.031595867 -0.124964796 0.36106193
000240 3d ae f6 bc cf 1d 23 3f 92 f0 ad bd 59 e9 c4 bb
       -0.03011238 0.6371736 -0.08493151 -0.0060092625
000250 b2 b6 aa bd 41 00 f1 bc e4 1d 03 be b9 f3 77 bd
       -0.083356276 -0.029419066 -0.12804371 -0.060535166
000260 35 8e 5c bd 61 e1 39 bd bd 32 ee bc d1 52 8b bd
       -0.053846557 -0.045380954 -0.029076928 -0.06802905
000270 e9 cd a2 bd 00 25 11 bd 7d 42 68 bd ea 98 29 bd
       -0.079494305 -0.035435677 -0.056704033 -0.041405596
000280 6f ec af bd 8b 8c d5 bd 66 38 84 bd 2d f2 9e bd
       -0.08590018 -0.10427197 -0.0645607 -0.07761035
000290 e6 dd a2 bd f5 a3 a2 bc 2f 6c 8b bd fc 32 13 bd
       -0.0795248 -0.019853571 -0.06807744 -0.035937294
0002a0 50 8d 9e bd 57 93 15 bd 7b a8 16 bd 93 0f 38 bd
       -0.07741797 -0.036517467 -0.03678177 -0.044936728
0002b0 29 ca e7 bc 69 cd c6 bd d3 23 d4 bd 19 5a 02 bd
       -0.02829464 -0.09707148 -0.103583954 -0.031824205
0002c0 59 c5 8e bd 07 02 25 bd 92 04 83 bd 30 5c 64 bd
       -0.06971235 -0.040285137 -0.06397356 -0.05575198
0002d0 fc b3 9d bd 3a b4 9a 3c a9 49 2f bd 8c 00 a0 bd
       -0.07700345 0.018884767 -0.042794857 -0.07812604
0002e0 b9 f2 d7 bd 46 21 b7 3e 50 e7 68 bc b9 a0 4c 3e
       -0.105443425 0.35767573 -0.014215305 0.19983186
0002f0 8e 83 3e bd e3 92 26 bd 96 03 e8 bc db 9b f1 bc
       -0.04651218 -0.040667426 -0.028322022 -0.029493263
000300 a1 7d 12 bc f8 8a 29 bd 5b 8b 1c bd 79 a5 b0 bd
       -0.008941085 -0.041392297 -0.038218837 -0.086253114
000310 01 ef 66 bd 93 12 13 bd 19 55 b2 bd ea 48 e1 bc
       -0.056380276 -0.035906386 -0.08707637 -0.027500588
000320 9c d6 40 bd 29 6d ba bd c2 4f 0c bd f1 6f 41 bf
       -0.047079667 -0.09102852 -0.03425575 -0.75561434
000330 7d 73 39 bd 3e 4e 95 bd 7b ff 8a bc 6f d2 a4 bc
       -0.045276154 -0.07290314 -0.016967526 -0.020119874
000340 9d 6e a3 bd c1 20 83 bd 3c 1c 21 be be 91 bf 3b
       -0.07980082 -0.06402732 -0.15733427 0.0058462312
000350 06 37 d3 bc bb cb 36 bd 20 58 d2 3e 2c d1 ed bd
       -0.025783073 -0.044627886 0.4108286 -0.11612162
000360 fe b5 a9 bd 92 bd 92 bd e6 6e cc bd 7d 79 a3 bc
       -0.082866654 -0.07165064 -0.0998209 -0.019955391
000370 cc aa 5f bd ea da c3 bd ad 19 8b bd 16 8e f0 bd
       -0.054606244 -0.09563239 -0.06792007 -0.11745851
000380 c0 b8 9b 3e 50 cd 00 bd 0f 89 82 bd 27 5a 1f 3e
       0.3041439 -0.0314458 -0.06373798 0.15561734
000390 44 6a 82 bd 74 7b 9f 3a 7a b3 63 3b 71 39 b5 bc
       -0.06367925 0.0012167529 0.0034744428 -0.022122117
0003a0 9b 59 74 3a 3b 53 a5 bc 16 f4 22 bd ab 5b f7 bd
       0.00093212136 -0.020181289 -0.03978356 -0.12078031
0003b0 23 9d a8 bd 72 ab 64 3f 3a ac 84 bd e9 4f 65 bd
       -0.082330965 0.89324105 -0.06478162 -0.05598441
0003c0 32 8f d0 bd 8d 3b bb bc 37 7e b6 bb 82 a5 7d bc
       -0.10183562 -0.022855544 -0.005569245 -0.015481355
0003d0 5f 3d dc bd fc f7 e0 bd 6b 12 69 bd ce 8e b7 bd
       -0.10753893 -0.10984799 -0.05690233 -0.08962785
0003e0 85 4e 9a 3e 25 f0 39 bc e0 46 c0 bd 51 a6 2a bd
       0.3013803 -0.011348759 -0.09388518 -0.041662518
0003f0 e7 a7 ff bc 63 e0 1d 3f 1d f2 67 bd e2 20 4f bd
       -0.031207992 0.6167051 -0.05662738 -0.05056847

fc3.weight f4 [1, 300]
000000 59 01 db 3b 1e ee 87 bc 46 61 3c bb 5d 48 1a 3d
       0.0066835103 -0.016593035 -0.0028744503 0.037666667
000010 78 ac a1 3c 48 0c b7 3c 27 26 1b bd 80 3c fe ba
       0.01973556 0.022344723 -0.03787818 -0.0019396693
000020 ce fc 49 bb 0d f4 fc 3c e3 b3 ea ba 7e 06 d8 3c
       -0.003082085 0.030878091 -0.0017906394 0.026370283
000030 8b f3 db 3c 6e 50 89 3d 0e 67 b1 3c 15 f5 9f 3c
       0.026849529 0.06704794 0.021655586 0.019526044
000040 24 37 e8 3c 43 2a bd ba 85 fa db 3c 33 35 89 3b
       0.028346606 -0.0014432151 0.026852855 0.00418725
000050 4f b2 cf 3c c3 ba 0a 3c f9 28 7d bb 46 91 53 3c
       0.025353579 0.008467379 -0.0038629158 0.012913054
000060 5d d1 da 3c da ad c0 bb 94 a8 78 bb ad 74 f7 bc
       0.02671116 -0.0058800997 -0.0037942277 -0.030207003
000070 6a 42 6b 3c d4 24 d1 bc eb 47 c5 3c 88 1e 8e 3a
       0.014359096 -0.025530256 0.024082145 0.0010842839
000080 8f 19 83 3c 89 6f 1c 3d 1e 16 95 3c cb 79 b6 bc
       0.016003398 0.038192306 0.018199023 -0.022274872
000090 c4 30 90 bb 9d 4b 9d ba ef ad 7d 3c 52 01 11 3a
       -0.0044003446 -0.0012000684 0.0154833635 0.0005531508
0000a0 c8 e0 dc 3c 20 f9 54 3b 29 ad 06 3c f7 d5 1b 3c
       0.026962653 0.0032497123 0.008219996 0.009511462
0000b0 42 62 a1 bc 21 a9 81 bb 5f bc c2 3c 47 0a 8f 3c
       -0.019700173 -0.0039569293 0.023771463 0.017460955
0000c0 b3 3d 33 bc 64 46 a2 bc 1a bf 13 3c 02 50 c7 3c
       -0.010940003 -0.019808955 0.00901773 0.024330143
0000d0 90 34 e9 b8 ea da ad ba fa b2 75 bc 64 b9 13 3d
       -0.00011120096 -0.0013264094 -0.014996285 0.036065474
0000e0 6b f4 c6 bc 29 e0 7c 3d 0c cf a5 3c db 49 e3 3c
       -0.02428647 0.061737213 0.02024033 0.027745178
0000f0 cc d9 6a 3c 18 d1 f5 bc 96 fc cd 3c 24 21 05 bc
       0.014334153 -0.03000693 0.025144856 -0.008125577
000100 2a 3c 94 3c 6b 97 df 3c 8d fe ad 3c 9a 3a 7a 3b
       0.018095095 0.027293881 0.021239543 0.0038181902
000110 3a 73 13 3d 47 ba 06 bd ca ce 46 3c 64 6e cf 3c
       0.03599856 -0.03289249 0.012134263 0.025321193
000120 b8 c5 c6 bc 91 6c 8d 3c da aa cd ba ef 71 d5 3b
       -0.024264202 0.017263683 -0.0015691177 0.006513826
000130 95 11 2d 3d 25 d3 b5 bc d4 5c 94 3c 5a 31 88 3a
       0.042253096 -0.022195408 0.01811067 0.0010390684
000140 f4 31 2d 3c ec 64 00 3c e6 8b a0 3c 1a 97 62 bc
       0.010570992 0.007836562 0.019597959 -0.013829971
000150 84 28 2f bb c8 f5 1c ba df 6c 96 bb b2 6c ef bc
       -0.002672703 -0.0005987552 -0.004590615 -0.029226635
000160 63 62 65 3d e3 b2 e4 bc 11 6c bc bc 96 5b 91 b9
       0.056002032 -0.027917331 -0.023000749 -0.00027724792
000170 45 8a 23 3d c9 d0 ea 3c d1 5e e7 3c 24 73 c5 3b
       0.039926786 0.02866401 0.028243454 0.0060256887
000180 5d 35 87 3c 99 8a df 3b 55 de 10 3a 98 73 a0 3c
       0.016504938 0.006821942 0.0005526294 0.01958637
000190 85 50 07 3d e2 c4 38 3b e7 02 a6 bc 0e 68 e2 3b
       0.033035774 0.0028193523 -0.020265056 0.006909377
0001a0 96 19 d5 3c f4 a5 0d bd 9e 21 ec bc 2a 10 f2 3b
       0.026013177 -0.034582093 -0.028824624 0.007387181
0001b0 ce 42 ea 3c ab e9 f8 bc fe 42 37 3b f9 93 e4 3c
       0.028596308 -0.03038486 0.0027963514 0.02790259
0001c0 19 a5 dc 3c ed df 2b bc be ef 77 3c 5f 63 d0 3a
       0.026934193 -0.0104904 0.015132843 0.0015898756
0001d0 56 42 e3 3c 55 55 70 3c 88 77 94 b8 b8 24 7e bb
       0.027741592 0.014668782 -7.0794544e-05 -0.003877921
0001e0 a7 ff f6 bb c6 1c a3 3c 52 2b 23 3c b8 51 4d 3c
       -0.0075378004 0.019911181 0.009959059 0.01253169
0001f0 c4 d0 e9 3a c4 b8 69 3c 2a ff 68 bc 31 86 e4 bb
       0.0017838706 0.014265243 -0.014220992 -0.0069740047
000200 f7 a6 3d 3b 95 86 a2 3b 87 0c 0b 3d 10 ae 26 3c
       0.002893863 0.004959891 0.033947494 0.010173336
000210 ed 84 29 3d 6b 1a fa 3c f8 84 92 3b 2c 8f 63 3b
       0.041386534 0.030530175 0.0044714175 0.0034722788
000220 a7 16 07 3d 5a 01 6c bc 60 d6 19 3d 07 be 2e 3d
       0.032980587 -0.014404619 0.03755796 0.042661693
000230 bb bb 80 bc ca 26 10 bc ae 4e b9 bb db 45 63 3d
       -0.015714517 -0.0087983105 -0.0056551313 0.05548654
000240 f6 b3 dc 3b 36 23 ad 3c 5b 6f 28 bc 19 7a cd 3b
       0.00673532 0.021134954 -0.010280455 0.0062706587
000250 b3 94 41 3c cd fd 5b 3a 54 67 e3 3b 41 b2 2b bb
       0.011815238 0.0008392006 0.006939808 -0.0026198777
000260 3e 8f 5f 3c 00 51 c5 3c f8 3b 05 3c 30 a8 77 3b
       0.013644991 0.024086475 0.008131973 0.0037789457
000270 74 ff 2e 3c 5f 52 d0 bb cc f8 fa ba 01 ad ed bc
       0.010681022 -0.0063574756 -0.0019147634 -0.029013159
000280 40 fc c9 bc fc 4f ec 3c 4c 36 25 3d 18 21 0d 3d
       -0.024656415 0.028846733 0.040334985 0.03445539
000290 4a 49 e2 bc e2 aa 4f 3b b7 c6 fc b9 b5 e8 74 bc
       -0.027622838 0.0031687547 -0.0004821324 -0.01494806
0002a0 db 5b bb bb 08 2e 25 3a 60 19 e5 bb 1e ac ab 3b
       -0.005717737 0.00063011097 -0.0069915503 0.005239024
0002b0 ed 5c 83 3c 6f 03 cc bb 8d 2f 5f 3c 21 2d 3e bc
       0.016035521 -0.0062259953 0.013622177 -0.011607439
0002c0 76 7d a8 3c 18 61 a6 bc c0 a8 85 bc 3e cc 31 bc
       0.020567637 -0.02030997 -0.016315818 -0.010851918
0002d0 4d 94 84 3a 02 07 70 3c e3 e7 d6 bb 83 eb 95 3c
       0.0010114998 0.014650108 -0.006558405 0.018300777
0002e0 8d e4 b4 bb 9f 78 d3 3c 13 ee 1c 3c d7 9e d8 3c
       -0.0055204094 0.025814353 0.009578246 0.026442928
0002f0 17 a8 df 3c 6c 75 8b 3b 33 70 8c bc 0e bb 43 3a
       0.027301831 0.004255941 -0.017143345 0.0007466533
000300 e7 3c 7a bc 30 cc 0f bb 94 d9 ad bb 21 a3 ea 3b
       -0.015273309 -0.0021941774 -0.0053054783 0.0071605598
000310 2c c7 26 3c bb 57 5c bb 51 ca 4f 3c ea 4e 41 3a
       0.010179322 -0.0033621627 0.012682513 0.0007374125
000320 5c 9a 1a ba d2 fb 8f ba a0 34 99 bb 79 29 b7 bc
       -0.0005897635 -0.0010985082 -0.004675463 -0.022358643
000330 14 aa c4 b9 5f 07 60 3c 79 66 a9 3c 01 c1 d8 bb
       -0.0003751075 0.013673632 0.020678746 -0.0066148047
000340 4b b7 b1 3b 14 20 25 bd 54 b3 d0 3b c5 6c f6 3c
       0.0054234616 -0.040313795 0.006369034 0.030081162
000350 d9 c0 c9 3c 1d da 3e 3b 16 09 c9 3c 89 05 90 bc
       0.02462809 0.0029121705 0.024540465 -0.017580764
000360 72 17 5b 3b 93 bf c1 bb ce dc 04 bc b6 5e 03 bb
       0.0033430723 -0.00591273 -0.008109285 -0.0020045466
000370 4c 75 9e bb d4 52 00 bb 70 26 40 bc 37 84 b2 bb
       -0.00483576 -0.001958062 -0.011727914 -0.00544789
000380 33 d3 02 3d b2 c3 90 3c 5d 8a f5 37 52 d2 16 3d
       0.031939697 0.01767144 2.9270706e-05 0.03682167
000390 8f 09 dc 3b 5c f0 67 3c f4 f0 5f 3c 06 5d c7 3a
       0.0067150067 0.014156427 0.013668288 0.0015210218
0003a0 73 ac 84 bb 68 dd 41 bb ef 80 50 3c 2c 53 18 3c
       -0.004048878 -0.0029581431 0.012726053 0.0092971735
0003b0 01 64 fb 3a b5 83 a0 3d 7e 01 d6 3c 5c 23 04 3c
       0.0019179584 0.07837621 0.026123758 0.008065071
0003c0 f4 5c df 3a c4 b2 db ba 36 b7 db 3c eb da e8 bb
       0.0017041252 -0.001676165 0.02682076 -0.007106175
0003d0 26 66 d0 3c 76 55 bf bc 50 d2 5a 3c 3e c8 86 3b
       0.025439333 -0.02335618 0.0133558065 0.004113226
0003e0 d5 bb bf 3c 25 28 4a bc 22 7e 58 3b e1 1a 8a 3c
       0.023404995 -0.012338673 0.0033034165 0.01685852
0003f0 4c 92 53 bc 8f 95 8f 3c 0f b4 33 3b 43 6e f6 3c
       -0.012913298 0.01752737 0.0027420556 0.030081874
